Model/Beispiel 2/model.pt (torch_old, 21721 bytes, 20 tensors)

weight f4 [16, 21]
0	0xbe20d1a8	-0.15704978
1	0x3fb8ba00	1.4431763
2	0xbfbdb7df	-1.4821738
3	0x3e807f84	0.25097287
4	0xbdcb8c50	-0.09938872
5	0xbe73825b	-0.23780195
6	0xbd8efd88	-0.06981951
7	0xbee74718	-0.45171428
8	0x3f35a78c	0.7095878
9	0xbec9f285	-0.3944284
10	0xbaf528c3	-0.0018704165
11	0x3e9b9ea2	0.30394465
12	0x3ea2a1b8	0.31764007
13	0xbe4721ed	-0.19446535
14	0xbf215eaf	-0.630351
15	0x3ef3e083	0.47632226
16	0xbf890977	-1.0706013
17	0xbe7a07fa	-0.24417105
18	0xbca49428	-0.020090178
19	0x3e8dda4e	0.27705616
20	0xbc8ae50b	-0.01695492
21	0xbfeaa8a6	-1.8332717
22	0xbf0cd2c7	-0.5500912
23	0xbea667a1	-0.32500938
24	0xbeaaf9d7	-0.33393738
25	0xbb79198e	-0.0038009617
26	0xbf6b2a5c	-0.9186151
27	0xbd746579	-0.059667084
28	0x3ea3d1af	0.31995913
29	0xbe9c8554	-0.3057047
30	0x3e52ed4d	0.20598336
31	0x3f4d4efc	0.80198646
32	0xbce51b0c	-0.027966999
33	0xbe531618	-0.20613897
34	0x3e645c3c	0.2230081
35	0xbf5abf4f	-0.85448164
36	0x3bbe29fd	0.0058033452
37	0x3a96b028	0.001149659
38	0x3ef45e5e	0.47728246
39	0xbe16573d	-0.14681716
40	0x3d8be61b	0.068309985
41	0x3f3b1b42	0.7308847
42	0x3ee785ea	0.45219356
43	0xbecac168	-0.39600682
44	0xbe4d78c7	-0.20065604
45	0x3fc01830	1.5007381
46	0x3d0d5a12	0.034509726
47	0xbf98289c	-1.1887393
48	0xbdad6b3b	-0.08467718
49	0x3dc193ac	0.09451994
50	0xbcf9d20e	-0.03049567
51	0xbd07b6ea	-0.033133425
52	0xbf5700d2	-0.83985627
53	0x3b34f9e2	0.0027614762
54	0xbd8be0d0	-0.06829989
55	0xbc9065bc	-0.017626636
56	0x3e63562a	0.22200838
57	0xbe06f4cb	-0.13179319
58	0xbe8db31d	-0.27675715
59	0x3e84fb7b	0.25973114
60	0xbdf22ae4	-0.11824587
61	0xbee23dd4	-0.44187796
62	0xbe2aff59	-0.1669897
63	0x3e1e19ba	0.15439501
64	0x3eae4078	0.3403356
65	0x3cb3dda0	0.021956265
66	0xbdc03fd0	-0.09387171
67	0x403e1f34	2.9706545
68	0x3ecbc5d5	0.3979937
69	0xbe1ddfee	-0.15417454
70	0xbe9af3b8	-0.30264068
71	0xbb8f25d0	-0.0043685213
72	0x3cef6a47	0.029225482
73	0xbd808d95	-0.06277005
74	0x3eceaa7f	0.40364453
75	0xbdadf5d4	-0.084941536
76	0xbd2ef249	-0.04271153
77	0xbe987ef1	-0.2978435
78	0x3ddbe597	0.1073715
79	0x3cee3d91	0.029082092
80	0xbe5d4c15	-0.21611054
81	0xbf0da39a	-0.5532776
82	0x3e154d52	0.14580277
83	0xbdbb02ce	-0.09131394
84	0xbdda125d	-0.10648034
85	0xbf43f667	-0.76547855
86	0x3dcfe46c	0.1015099
87	0x3e6a8b92	0.22904804
88	0x3fce654c	1.6124663
89	0x3f526d3d	0.82197934
90	0x3ca9d0b0	0.020729393
91	0x3d7490bb	0.05970834
92	0x3cb85905	0.022503385
93	0xbec818f7	-0.39081547
94	0xbcfabe32	-0.03060827
95	0xbe203765	-0.15646131
96	0x3cfd743c	0.030939214
97	0x3d9e5eb9	0.07732911
98	0x3e216dd6	0.15764555
99	0x3ee92e79	0.45543268
100	0xbead006d	-0.33789387
101	0x39d336ea	0.0004028597
102	0x3fc388c4	1.5276113
103	0xbecbe628	-0.39824033
104	0xbdfdb414	-0.12387863
105	0xbe1bc4df	-0.15211819
106	0xbd61a360	-0.055087447
107	0xbc5cae97	-0.01346936
108	0xc041100b	-3.0166042
109	0x3e2cbe2d	0.16869421
110	0x3e9e3f12	0.30907494
111	0x3dec61de	0.11542104
112	0x3e818a13	0.25300655
113	0x3cd70d40	0.026251435
114	0x3c9c8c82	0.019109968
115	0x3e47def2	0.1951864
116	0x3c0f575c	0.008748855
117	0xbede4ecc	-0.43419492
118	0xbe401dd8	-0.18761384
119	0xbe6ce1b9	-0.23132981
120	0x3de33046	0.11093192
121	0x3ddf573a	0.10905309
122	0xbdcb98e6	-0.099412724
123	0x3e4886ed	0.1958272
124	0x3d3018b6	0.042992316
125	0xbd665fbe	-0.05624365
126	0x3dcb99d2	0.09941448
127	0x3ecd1596	0.4005553
128	0x3fe7e320	1.8116188
129	0xbec24cc4	-0.37949193
130	0x3d4c4356	0.049868904
131	0xbf8bfb50	-1.093607
132	0xbcbd9013	-0.023139989
133	0xbf5eacc6	-0.8698238
134	0x3f0aed8c	0.5426872
135	0xbe2ef526	-0.17085704
136	0xbd8c4f43	-0.068510555
137	0x3e619b70	0.22031951
138	0x3eec3530	0.4613433
139	0x3e1d4b31	0.15360714
140	0xbf52f69a	-0.82407534
141	0x3f30f1e5	0.691191
142	0x3fbbd34d	1.4673859
143	0xbd9452e8	-0.072423756
144	0x3eeb1b88	0.45919442
145	0x3d7b3609	0.06133083
146	0x3e81072a	0.25200778
147	0x3fc816b1	1.5631925
148	0x3f463468	0.77423716
149	0x3e2d592d	0.16928549
150	0x3ee6b79f	0.45061967
151	0xbecc4de9	-0.3990319
152	0x3eafe0eb	0.34351286
153	0xbdfd18f4	-0.12358275
154	0xbee79a23	-0.45234784
155	0x3ef201b4	0.47266924
156	0x3e31dc53	0.17369203
157	0x3e282066	0.16418609
158	0xbdf9b5a5	-0.12192849
159	0xbe7399ad	-0.23789091
160	0x3f12b790	0.57311344
161	0x3f2d9f8b	0.6782157
162	0xbf72d894	-0.9486172
163	0xbe0615bb	-0.13094227
164	0x3f1cabcd	0.6119965
165	0x3d72a9fe	0.05924415
166	0xbee5fe07	-0.4492037
167	0x3f4834d8	0.78205633
168	0x3f108417	0.56451553
169	0xbe47af98	-0.19500577
170	0xbe90735d	-0.28213015
171	0x3f34af9d	0.70580465
172	0xbf349ebc	-0.7055471
173	0xbfaa5d31	-1.330969
174	0xbd2cdbae	-0.04220169
175	0x3e8bb2b1	0.27284768
176	0xbe439619	-0.19100226
177	0xbe8e56d2	-0.27800614
178	0xbf10d5f8	-0.5657649
179	0xbe26e6f6	-0.16299042
180	0x3ed64f50	0.41857386
181	0x3ee6e9a9	0.45100144
182	0x3ec6936d	0.38784352
183	0xbee17899	-0.4403732
184	0xbe92a8a0	-0.28644276
185	0xbd4fd3e8	-0.0507392
186	0xbeaf141f	-0.3419504
187	0xbe04faf4	-0.12986356
188	0x3d2629b5	0.04056712
189	0xbeb7f6ed	-0.35930577
190	0x3f821d45	1.0165182
191	0x3ebc2c36	0.3675248
192	0xbfb2f925	-1.3982283
193	0xbe7c2993	-0.24625234
194	0x3f65a80b	0.8970954
195	0x3ddde967	0.108355336
196	0xbd984b23	-0.07436206
197	0xbe297846	-0.16549787
198	0x3d0acef9	0.03388879
199	0x3f259c1a	0.6469132
200	0xbe59abd4	-0.21256953
201	0xbe2f40ed	-0.17114611
202	0x3da76cc6	0.08175044
203	0xbe6188ab	-0.22024791
204	0x3f0a9447	0.54132503
205	0x3e079d96	0.13243708
206	0xbfa7a5b8	-1.3097448
207	0x3e17c3fe	0.14820859
208	0x3dacf33a	0.08444829
209	0x3e30fe1e	0.17284438
210	0x3da9d055	0.08291689
211	0x3da85323	0.08218982
212	0x3dd33892	0.10313524
213	0xbc208523	-0.009797367
214	0xbe1a846a	-0.15089574
215	0xbe04c096	-0.1296409
216	0xc084e834	-4.153345
217	0x3ed00e16	0.40635747
218	0x3bd9c5c7	0.0066458913
219	0xbde01faa	-0.109435394
220	0x3d707462	0.05870474
221	0xbe10ec1c	-0.14152569
222	0x3dd496c9	0.103803225
223	0x3cb6e253	0.022324717
224	0x3ee1a0eb	0.44068083
225	0xbe8fd700	-0.2809372
226	0xbdbeaa1f	-0.09309792
227	0xbc273850	-0.010206297
228	0xbd33e179	-0.0439162
229	0xbe5a133d	-0.21296401
230	0xbbcf95b4	-0.0063349847
231	0xbe55c579	-0.20876111
232	0x3e2914ef	0.16511892
233	0x3e06c3e1	0.1316066
234	0x3fe9b240	1.8257523
235	0x3b008bfb	0.0019614685
236	0xbf87fa98	-1.062335
237	0xbd7e8d5a	-0.062146522
238	0x3e8ab6af	0.27092502
239	0x3e01f00e	0.1268923
240	0x3f02696d	0.50942117
241	0x3f0d09cd	0.5509308
242	0x3e566c73	0.20939808
243	0x3f2c0928	0.6720147
244	0xbe1614a8	-0.14656317
245	0xbd524202	-0.05133248
246	0xbe2f1eff	-0.17101668
247	0x3e8d9b90	0.27657747
248	0x3f2ac562	0.6670743
249	0x3e36ce07	0.1785203
250	0xbe07c851	-0.13260008
251	0xbed1ec12	-0.4100042
252	0xbe0052a0	-0.12531519
253	0xbf5d79b4	-0.8651383
254	0x3b2f3474	0.0026734145
255	0x3dc6dde5	0.09710292

bias f4 [16]
0	0x3e071920	0.13193178
1	0x3d85347f	0.065041535
2	0x3e7fd62c	0.24984044
3	0xbdd815f6	-0.10551064
4	0x3f0fc2df	0.56156725
5	0x3dea30a5	0.114350595
6	0x3a43052d	0.0007439431
7	0x3e357f7d	0.17724414
8	0xbdb2e740	-0.08735514
9	0x3db53fdd	0.088500716
10	0xbd62a8ef	-0.05533689
11	0x3e8da193	0.27662334
12	0xbc14ce3c	-0.009082373
13	0x3be0e769	0.0068635237
14	0xbe6d6b5e	-0.23185489
15	0x3e7de5c7	0.24794684

weight f4 [16]
0	0x3f9410e8	1.1567659
1	0x3f8664d8	1.0499525
2	0x3f61dcbc	0.8822744
3	0x3e8ddbfe	0.27706903
4	0x3f7d2c7b	0.98895997
5	0x3eccb910	0.3998494
6	0x3f403cc2	0.7509271
7	0x3f662b5a	0.899099
8	0x3e2e6f51	0.17034651
9	0x3f9a0da9	1.2035419
10	0x3eed6eb4	0.46373522
11	0x3f543d29	0.82905823
12	0x3fa9cb37	1.3265141
13	0x3fcedd36	1.6161258
14	0x3ebfb96c	0.37446153
15	0x3f998efa	1.1996758

bias f4 [16]
0	0xbf963db6	-1.1737583
1	0xbf798336	-0.97465837
2	0xbec1ef26	-0.37877768
3	0x3f6fe20f	0.93704313
4	0xbf7b7c94	-0.98236966
5	0x3e884d7f	0.26621625
6	0xbf63c3ae	-0.8897046
7	0xbf8c3142	-1.0952532
8	0x3e14f2d1	0.14545752
9	0xbf88d347	-1.0689477
10	0x4008aae3	2.13543
11	0xbf8d0c3f	-1.1019362
12	0xbfb26360	-1.3936577
13	0xc0515cf2	-3.271298
14	0x3fd0db63	1.6316952
15	0xbfaab2e3	-1.3335842

running_mean f4 [16]
0	0x3fcd2ce2	1.6029322
1	0x3fa9db0e	1.3269975
2	0x3eb454ad	0.35220852
3	0xbe42474a	-0.18972507
4	0xbdd5e287	-0.10443597
5	0x3edfc8f5	0.43708006
6	0xbe1e39ea	-0.1545178
7	0xbf1af450	-0.6052904
8	0x3e7a6fc5	0.24456699
9	0x3e8699e3	0.2628928
10	0xbf907fe0	-1.1289024
11	0x3f1cf016	0.6130384
12	0xbf2e21fe	-0.6802062
13	0x3fd787f6	1.6838367
14	0xbff6ff01	-1.9296571
15	0x3f91c7f3	1.1389145

running_var f4 [16]
0	0x41684076	14.515738
1	0x4182910e	16.320827
2	0x41a56b9e	20.677547
3	0x4245ae55	49.420246
4	0x41531644	13.192936
5	0x41e95182	29.164799
6	0x4196d846	18.855602
7	0x4148a097	12.5392065
8	0x416ed34e	14.926588
9	0x41b13694	22.15165
10	0x42955692	74.66908
11	0x41610e5d	14.066007
12	0x4192ae43	18.335089
13	0x424596cc	49.397263
14	0x428ab6fa	69.357376
15	0x41a827b5	21.019388

weight f4 [5, 16]
0	0xbfdf0259	-1.7422591
1	0xbc0a5ec7	-0.008445448
2	0xbd16ffa8	-0.036864907
3	0x3d730145	0.059327383
4	0x3dadecc7	0.08492427
5	0xbd55755e	-0.052113883
6	0x3f9f0dce	1.2426088
7	0x3e0968ee	0.13418934
8	0x3deb382c	0.11485323
9	0x3d408011	0.046997134
10	0xbd2d21aa	-0.042268433
11	0x3e13d060	0.14434958
12	0x3da2928e	0.07938109
13	0xbf1f19e1	-0.62148863
14	0x3f955e23	1.1669353
15	0xbda14695	-0.078747906
16	0x3b8bf325	0.0042709284
17	0xbfa1b8d3	-1.2634529
18	0x3d55e420	0.05221951
19	0x3c176af1	0.009241805
20	0xbd23bc55	-0.03997453
21	0xbb843f9e	-0.004035904
22	0xbd0e4861	-0.034736995
23	0x3fafd7e2	1.3737757
24	0xbdae5ccd	-0.08513794
25	0xbd685409	-0.056720767
26	0x3a262069	0.0006337227
27	0xbde6f3d7	-0.112769775
28	0xba827d59	-0.0009955569
29	0xc0dec8b8	-6.962002
30	0xbc0af739	-0.008481794
31	0x3caf7b58	0.02142112
32	0x3ba3970c	0.0049923714
33	0x3c3ce0d5	0.0115282135
34	0xbc91be34	-0.017790891
35	0x3f479352	0.7795917
36	0x3fbe34fd	1.4859921
37	0x3c8b155f	0.016977964
38	0x3b08326d	0.002078201
39	0x3db43898	0.08799857
40	0x3d58b75d	0.052909244
41	0x3d46bb64	0.048518553
42	0xbc9e6b06	-0.019338142
43	0xbd9bd927	-0.07609778
44	0xc0053122	-2.0811238
45	0x3e7dba51	0.24778105
46	0x3c4305cb	0.011903237
47	0xbc9098f4	-0.017651059
48	0xbc4ec5ae	-0.012620373
49	0x3dc04a49	0.09389169
50	0x3cfc6477	0.030809624
51	0x3dba26c2	0.09089424
52	0xbd8d0295	-0.06885258
53	0x3ab56377	0.0013838847
54	0x3d315edf	0.043303367
55	0xbda89102	-0.08230783
56	0xbe1fd15d	-0.1560721
57	0xbc6db3ba	-0.014508182
58	0x3fcdf0ab	1.6089071
59	0x3e0ea2f1	0.13929345
60	0x3d04ae75	0.032392938
61	0x3d58c48b	0.052921813
62	0xbc82bd5f	-0.01595944
63	0xc03c5165	-2.942468
64	0xbd32d42b	-0.04365937
65	0x3e721332	0.23640135
66	0xbfaeb054	-1.3647561
67	0x3e209c5e	0.1568465
68	0xbd8fe80f	-0.070266835
69	0x3f6bed20	0.921587
70	0x3e3f7cc2	0.18699935
71	0xbe4269d1	-0.18985678
72	0x3f1a0c03	0.6017458
73	0x3f82cf84	1.0219579
74	0x3d07fcb5	0.033199985
75	0xc008fb89	-2.1403525
76	0x3c17e859	0.009271705
77	0x3ef2f809	0.4745486
78	0x3d5bbd93	0.05364759
79	0xbcd24590	-0.025667936

bias f4 [5]
0	0x3e1cbd8f	0.15306686
1	0x3e7d7d16	0.24754748
2	0xbeabd2ce	-0.3355927
3	0x3f233a95	0.63761264
4	0x3f2fa06e	0.6860417

weight f4 [5]
0	0x3fa2c81e	1.2717321
1	0x3f4f1d22	0.8090383
2	0x3f4eac6b	0.8073184
3	0x3f5630ab	0.8366801
4	0x3fd464ea	1.6593297

bias f4 [5]
0	0xbf8b5163	-1.0884212
1	0x3ff3b8d4	1.904078
2	0x3efd9d60	0.4953413
3	0xbf2fcbc0	-0.6867027
4	0xbf78e697	-0.9722685

running_mean f4 [5]
0	0x3ffeaa9c	1.9895816
1	0x3f2c41cd	0.67287904
2	0x3eb65880	0.35614395
3	0x407cd3ff	3.9504392
4	0x3f973458	1.1812849

running_var f4 [5]
0	0x3f4b44ca	0.7940184
1	0x3e92e12a	0.28687412
2	0x3efb12f0	0.49037886
3	0x3fcf1f93	1.6181511
4	0x3f783b41	0.96965414

weight f4 [16, 5]
0	0x395cfb33	0.00021074414
1	0x3dea741b	0.114479266
2	0xc097cfa2	-4.744096
3	0x3da59025	0.08084134
4	0x3e01892c	0.12649983
5	0x3bbcc5d2	0.0057608867
6	0xbdf566e6	-0.11982517
7	0x40933352	4.6000147
8	0x3c69ad74	0.014262546
9	0xbe2c30c5	-0.16815479
10	0xbf303b82	-0.688408
11	0x3e9af938	0.30268264
12	0x3f9bd5a5	1.2174574
13	0xbf0e89cf	-0.5567903
14	0x3f18216d	0.59426004
15	0xbdf501b4	-0.119632155
16	0x3fd59437	1.6685857
17	0x3eb75400	0.35806274
18	0xbf074076	-0.52832735
19	0x3e277d47	0.16356383
20	0xbc839e8b	-0.01606681
21	0x3d1ee193	0.038789343
22	0x3d08d1ee	0.03340333
23	0x410b3e78	8.702751
24	0xbd052f1d	-0.032515634
25	0x40077b53	2.116902
26	0xbeb725e7	-0.35771105
27	0xbdf54cea	-0.11977561
28	0x3df1b1cb	0.118014894
29	0xbe23223c	-0.15931028
30	0xbebeb75f	-0.37249276
31	0x3e9255ef	0.28581187
32	0x3fd7e58f	1.6866931
33	0x3eabf0a8	0.33582044
34	0x3e8c0ba0	0.2735262
35	0xc0f2baa3	-7.585283
36	0x3cc65122	0.024208609
37	0xbc240e23	-0.010013136
38	0x3eb15306	0.34633654
39	0xbc8dd90a	-0.017315406
40	0xbe8e3aed	-0.27779332
41	0x3f195d05	0.5990756
42	0xbe7be483	-0.24598889
43	0x3e8ae5e8	0.2712853
44	0x400e7581	2.2259219
45	0x3d9cdf16	0.07659738
46	0xbdefea52	-0.11714615
47	0xbc13b232	-0.009014653
48	0x3d8e97d8	0.06962556
49	0xc0998776	-4.7977858
50	0x40d085e9	6.5163465
51	0xbde0174b	-0.10941943
52	0x3d3c1670	0.045919836
53	0xbdc26845	-0.09492544
54	0x3e030c59	0.12797679
55	0x3d74771d	0.059683908
56	0xbd3a9889	-0.045555625
57	0xbd85d7e9	-0.06535322
58	0xc1089458	-8.536217
59	0xbd4c9400	-0.04994583
60	0x3e8df9b6	0.27729577
61	0x40a0895b	5.016767
62	0x3e423623	0.18965964
63	0xbdf60e2b	-0.12014421
64	0xbcb249e2	-0.021763746
65	0xbe8a20af	-0.2697806
66	0xc0960ba7	-4.6889224
67	0x3e23271e	0.15932891
68	0xbe07153e	-0.13191697
69	0x3d20f54f	0.039296445
70	0x3ded6fb5	0.11593572
71	0xbf56627d	-0.8374403
72	0xbefab250	-0.48964167
73	0x3f875753	1.0573524
74	0xbf5ac2ef	-0.85453695
75	0xbe0e7742	-0.13912681
76	0x3e0b4c4a	0.1360332
77	0x3d98c74d	0.074598886
78	0xbe09c0b7	-0.13452421
79	0x408de982	4.4347544

bias f4 [16]
0	0x3f98e1a4	1.194386
1	0xbf9c8a09	-1.2229625
2	0x3ef3adb8	0.47593474
3	0x3d716ac3	0.058939707
4	0xbf21a47e	-0.6314162
5	0xbe99a356	-0.30007428
6	0x3f10d37e	0.5657271
7	0x3e852a1f	0.26008698
8	0x3f7d4a04	0.98941064
9	0x3de22383	0.110419296
10	0x3efdf73d	0.4960269
11	0x3ed1bb5a	0.4096325
12	0xbf254b11	-0.6456767
13	0x3ea04fd1	0.31310895
14	0x3f4d7039	0.80249363
15	0xbeb945bb	-0.36186013

weight f4 [16]
0	0x3fb7881c	1.4338412
1	0x3fa5be78	1.2948751
2	0x3f12c9cf	0.57339185
3	0x3f7dfc70	0.99213314
4	0x3f894884	1.0725255
5	0x3f802c52	1.0013525
6	0x3ef967d5	0.4871203
7	0x3fa2a56c	1.2706733
8	0x3f910d85	1.1332251
9	0x3fca3454	1.5797219
10	0x3fc09a5c	1.5047107
11	0x3f89c98e	1.0764635
12	0x3fa99b8f	1.3250598
13	0x3f83e176	1.030318
14	0x3f246fe7	0.6423325
15	0x3fdc2292	1.719805

bias f4 [16]
0	0x3f45075d	0.7696436
1	0x3f32de9a	0.69870913
2	0xbe7c1af0	-0.24619651
3	0x3e42b36d	0.19013758
4	0x3f36ddb3	0.71432036
5	0x3f64aef6	0.8932947
6	0xbf1fd47f	-0.6243362
7	0x3f4c9de4	0.7992842
8	0x3f80aaac	1.0052085
9	0x3ec6c015	0.38818422
10	0x3f4dc9c6	0.80386007
11	0x3f62daf9	0.88615376
12	0x3f2f926f	0.68582815
13	0x3f5f7ef7	0.8730311
14	0x3f348ff9	0.70532185
15	0x3f0f28d0	0.5592165

running_mean f4 [16]
0	0xbfb0ef83	-1.3823093
1	0x3f9f79bf	1.2459029
2	0x3ffd9494	1.9810967
3	0x40646abb	3.5690143
4	0xc0211784	-2.5170603
5	0xbfe0db2d	-1.7566887
6	0x4004ae11	2.0731242
7	0x4032746e	2.7883563
8	0x3fc119be	1.5085981
9	0x3f7154b6	0.94269884
10	0xbff2a139	-1.8955451
11	0x400eb7fd	2.2299798
12	0x410f5f9a	8.96084
13	0xc106a644	-8.415592
14	0xbf94a679	-1.1613303
15	0xbf801950	-1.0007725

running_var f4 [16]
0	0x411e4587	9.891974
1	0x41150be6	9.315405
2	0x3f8ffbb5	1.124869
3	0x3ff00c6f	1.8753794
4	0x412b4fc3	10.706973
5	0x4003e51a	2.0608582
6	0x3fb20167	1.3906678
7	0x41c69427	24.82234
8	0x405548b9	3.3325636
9	0x418b723e	17.430782
10	0x419212be	18.259151
11	0x4122b863	10.170016
12	0x418698c1	16.824587
13	0x416ae43a	14.680719
14	0x3f925642	1.1432574
15	0x416f0d5f	14.940764

weight f4 [21, 16]
0	0xbca13c4f	-0.019682078
1	0x3d80a974	0.062823206
2	0xbe13969b	-0.1441292
3	0xbe2ce115	-0.16882737
4	0xbd947688	-0.072491705
5	0x3dd7a1d6	0.10528915
6	0x3c2431bc	0.010021623
7	0x3d2e5e1f	0.04257023
8	0xbea9691f	-0.33088014
9	0xbe80834a	-0.25100166
10	0xbd9a79ad	-0.07542739
11	0x3c923914	0.017849483
12	0x3fd2bd00	1.6463928
13	0xbffc0c85	-1.9691321
14	0x3e735c82	0.23765758
15	0x3ed86196	0.42261952
16	0xbf2897b2	-0.6585647
17	0xbdd6442b	-0.10462221
18	0xbe306187	-0.17224704
19	0x3fbca3a6	1.4737442
20	0x3ea5b448	0.32364106
21	0xbfce7901	-1.6130677
22	0x3f3ea14f	0.7446489
23	0x3df36609	0.11884696
24	0x3f05fc34	0.52337956
25	0x3f185f5c	0.59520507
26	0x3f8d8c84	1.1058507
27	0x3d49068f	0.04907852
28	0xbf7ae84a	-0.98010695
29	0xbe3ad183	-0.18243985
30	0xbf8f17c0	-1.1179123
31	0xbf10274f	-0.5630998
32	0xbd1d7592	-0.038442202
33	0xbcca34c0	-0.024683356
34	0xbdabbf35	-0.08386079
35	0x3d7abc14	0.06121452
36	0x3d9d8503	0.076913856
37	0xbe68a16b	-0.22717826
38	0xbc787da1	-0.015166671
39	0xbfe0ed5d	-1.7572438
40	0x3e0773b4	0.13227731
41	0x3dfb763b	0.1227841
42	0x3fca0cc7	1.5785149
43	0xbc62bd84	-0.013839129
44	0xbe06e8f5	-0.13174804
45	0xbcad7ecb	-0.021178624
46	0xbca82127	-0.02052362
47	0xbe4b04b4	-0.19826013
48	0xbc4b2bc9	-0.012400576
49	0x3d3ddce4	0.046353236
50	0x3d5bf0e2	0.05369652
51	0x3e68d62e	0.22737953
52	0x3c0367df	0.00802037
53	0xbe0331db	-0.12811987
54	0xbcb5465e	-0.02212828
55	0xbcc7d149	-0.024391787
56	0xbc9008bf	-0.017582295
57	0x40023814	2.0346727
58	0x3db63f14	0.0889875
59	0x3c30e031	0.010795639
60	0xbe0b2384	-0.13587767
61	0x3ba8c9e6	0.0051510213
62	0xbd9e6285	-0.07733635
63	0xbfe0b197	-1.7554196
64	0xbfed1aba	-1.8523781
65	0x3ff6528e	1.9243944
66	0x3e20556b	0.15657584
67	0xbe0177d7	-0.12643372
68	0xbd037fa9	-0.032104168
69	0x3e1896c7	0.14901267
70	0x3e91859e	0.28422254
71	0x3d2697d1	0.040672127
72	0x3c51b54d	0.012799573
73	0xbd21f422	-0.039539464
74	0xbe186f14	-0.14886123
75	0x3cdfd76d	0.027324403
76	0x3d2a27d7	0.0415419
77	0xbda519db	-0.08061572
78	0x3d8bca4d	0.06825695
79	0x3bc1e9a1	0.0059177433
80	0x3e92a768	0.28643346
81	0x3e87494f	0.26423118
82	0x3f8d961d	1.1061436
83	0x3e45e615	0.1932605
84	0xbba48dc5	-0.005021783
85	0xbea9fc5b	-0.33200344
86	0xbf6df918	-0.9295821
87	0xbd0a9eee	-0.033842973
88	0x3fdefe08	1.7421274
89	0x3ed46159	0.4148052
90	0xbe17eed6	-0.14837202
91	0xbdf2280b	-0.11824044
92	0xbe1b2d9a	-0.15154114
93	0xbe53ddf6	-0.2069014
94	0xbf542f31	-0.8288451
95	0xbfa3ec7b	-1.2806543
96	0xbc9831a4	-0.018578358
97	0x3ceb84d1	0.028749855
98	0x3d3b2a20	0.04569447
99	0xbce7ade6	-0.028281163
100	0xbfe1f947	-1.7654198
101	0x3dd3d33c	0.10343024
102	0xbda2c437	-0.07947581
103	0x3afe1ec3	0.001938783
104	0x3b855154	0.004068533
105	0xbd94c011	-0.07263196
106	0xbdb28924	-0.08717564
107	0x3fe1571b	1.7604707
108	0x3d68fd66	0.056882285
109	0xbd607d41	-0.05480695
110	0x3e0f264b	0.13979451
111	0x3d26a7ef	0.040687498
112	0x3c202f20	0.0097768605
113	0xbca0940e	-0.019601848
114	0x3d1a33bf	0.037647005
115	0x3ca2d757	0.019878073
116	0x3c760c99	0.015017652
117	0xbc8b179b	-0.01697903
118	0xbc7483ac	-0.014923971
119	0xbc7e0c4c	-0.0155058615
120	0x3c2e98ae	0.010656519
121	0x3c6cbd95	0.014449497
122	0x3baa136c	0.0051903035
123	0x3c4d4840	0.012529433
124	0x3b399e92	0.0028323275
125	0xbc54f7f0	-0.012998566
126	0xbb8fa00d	-0.004383093
127	0xbc9116ba	-0.017711032
128	0xbbcd6b17	-0.0062688696
129	0x3bf4f749	0.0074757678
130	0xbd182b98	-0.03715095
131	0x3c2b228a	0.0104452465
132	0x3a767393	0.0009401377
133	0xbbc200ed	-0.0059205205
134	0xbb8712ca	-0.004122113
135	0x3cb28b26	0.021794867
136	0x3a591456	0.00082809234
137	0x3c0181f4	0.007904518
138	0x3b4096a7	0.002938667
139	0x3a1f6bdf	0.00060814427
140	0xbc04cc76	-0.008105388
141	0xbbd4b437	-0.00649121
142	0xbb23acaa	-0.0024974742
143	0x38f9c477	0.0001190984
144	0xbc470268	-0.01214657
145	0xbc5f12dc	-0.013615336
146	0x3c87e790	0.01658991
147	0xbbaf9ba5	-0.0053591304
148	0x3c256cd5	0.010096748
149	0x3c2e0c7c	0.010623094
150	0x3cc6fb92	0.02428988
151	0xbcfc0f9e	-0.030769166
152	0x3c5e8788	0.013582118
153	0x3bfad2fb	0.0076545454
154	0x3bfcd07c	0.007715283
155	0x3b14f294	0.0022727596
156	0x3b353781	0.002765149
157	0x3b46554f	0.003026325
158	0xbce9fd4c	-0.028563164
159	0xbbbdb3c3	-0.0057892515
160	0x3b4889db	0.0030599746
161	0xbc145b9d	-0.009055045
162	0x3c8d8480	0.017275095
163	0x3ca6169c	0.020274453
164	0xba540bb3	-0.00080889015
165	0x3a50d0de	0.0007965694
166	0xbd25b33a	-0.040454127
167	0xbc0811c0	-0.008305013
168	0x3ce02bb5	0.027364591
169	0x3cd7de65	0.026351163
170	0xbb1d55ff	-0.0024007556
171	0xbb901067	-0.0043964866
172	0xbbeedf4c	-0.0072898027
173	0x3c1d03ec	0.009583455
174	0xbbbe3c24	-0.005805509
175	0xbd1f56aa	-0.03890101
176	0xbc9b1369	-0.018930154
177	0x3c98fe2b	0.018675884
178	0xbbbfcebe	-0.005853503
179	0x3cc77505	0.024347791
180	0xbca731d1	-0.020409497
181	0xbc8e11f6	-0.017342549
182	0x3be53cf8	0.0069957934
183	0xbbed5fa5	-0.0072440677
184	0xbc762e6c	-0.015025716
185	0xbc07a152	-0.008278208
186	0x3c34f774	0.011045326
187	0xbc1ee34a	-0.009697745
188	0x3b133943	0.002246455
189	0xbc6474fa	-0.013943905
190	0x3c35d80f	0.011098876
191	0x3c9fa962	0.019489948
192	0xbc1713c2	-0.009221019
193	0x3c313cc8	0.010817714
194	0xbbaf3032	-0.0053463215
195	0x3c919a69	0.017773824
196	0x3c04cc8c	0.008105408
197	0x3c997841	0.0187341
198	0x3cce3b19	0.025174664
199	0x3bf2230c	0.007389432
200	0x3c73b2c7	0.014874167
201	0xbc4b3451	-0.01240261
202	0xbc59595c	-0.013265934
203	0xbac5fc89	-0.0015105169
204	0xbc593a93	-0.013258594
205	0xbc7793da	-0.015110934
206	0x3bf1f301	0.0073837047
207	0x3b8ab8aa	0.0042334395
208	0xbba779c5	-0.0051109516
209	0xbc0cca27	-0.008593119
210	0x3cd97dcf	0.026549248
211	0xbb01010d	-0.0019684464
212	0xbc874cbf	-0.016516088
213	0xbc00a545	-0.007851903
214	0xba9875c7	-0.001163178
215	0xbc442847	-0.0119724935
216	0x3cb0dc3a	0.021589387
217	0x3cb73bd1	0.02236739
218	0x3c184da3	0.009295854
219	0x3c06c7c2	0.008226337
220	0xb9fac0d1	-0.00047827375
221	0x3c9321be	0.017960425
222	0xbc96848a	-0.018373746
223	0xbd12bf9a	-0.035827257
224	0x3c0175ee	0.007901652
225	0xbca22e81	-0.019797565
226	0x3d23fc6e	0.040035658
227	0x3c8e7a46	0.017392289
228	0x3c714e07	0.014728076
229	0xbc8c3ffd	-0.017120356
230	0xbc719935	-0.014746
231	0xbc73857c	-0.014863368
232	0x3c1b3f73	0.009475577
233	0x3c85f147	0.016350402
234	0x3bc39716	0.0059689386
235	0x3c51c430	0.012803122
236	0x39e24e04	0.00043164205
237	0xbc004c80	-0.007830739
238	0xbb008257	-0.0019608939
239	0xbcabc22a	-0.020966608
240	0xbb68a867	-0.0035500766
241	0x3c0bda78	0.008535974
242	0xbd2dbd7a	-0.042417027
243	0x3c2e6512	0.010644214
244	0xbad96004	-0.0016584401
245	0xba8a7ae0	-0.0010565184
246	0xbc1c75aa	-0.009549538
247	0x3ca43c2b	0.020048222
248	0xbb0f8376	-0.0021898425
249	0x3b3da16d	0.0028935329
250	0xba5024fa	-0.000794008
251	0x3b179919	0.0023132025
252	0xbbf951c4	-0.007608624
253	0xbc3aaae2	-0.011393281
254	0x3b246a65	0.002508783
255	0x3b5fb2c1	0.0034133645

bias f4 [21]
0	0xbd1f4178	-0.038880795
1	0x3f967f73	1.1757644
2	0x3eb4e7c4	0.35333073
3	0xbddfe71f	-0.10932755
4	0x3d92e83b	0.07173201
5	0xbe3a0ffa	-0.18170157
6	0xbe204386	-0.15650758
7	0xbc83ed6a	-0.016104419
8	0x3c7af556	0.015317282
9	0x3c4cd074	0.012500871
10	0xbb1befd4	-0.0023794072
11	0x3ca4b054	0.020103611
12	0xbcb036a0	-0.021510422
13	0xbc29258d	-0.010323894
14	0xbcb830f4	-0.02248428
15	0x3c2c5b72	0.010519849
16	0x3c65c17c	0.014023181
17	0x3be956ff	0.0071209664
18	0x3cc61835	0.024181465
19	0xbcb37858	-0.02190797
20	0xbc8720b7	-0.016495092
