Model/Beispiel 4/model.pt (torch_old, 21793 bytes, 20 tensors)

weight f4 [16, 21]
000000 93 e8 20 40 d6 a5 26 3e 0c 47 62 3e 35 fe 36 bf
       2.5141952 0.16274199 0.22097415 -0.7148164
000010 5e da da bc fb 9a 03 3e 06 4f d5 3e 2a b7 28 be
       -0.026715454 0.12852089 0.41661853 -0.16476122
000020 c5 21 7e 3e a8 ff e3 3d 33 a6 68 3c 10 72 50 be
       0.2481757 0.11132747 0.014199781 -0.20356011
000030 9a 69 d4 3d 00 e9 c3 3d 5f 4a 39 3e 06 d8 60 3e
       0.103717044 0.095659256 0.18094777 0.21957406
000040 0c 46 00 3e af c2 16 be 61 34 8d be 59 12 3f 3e
       0.12526721 -0.14722703 -0.27579024 0.18659343
000050 39 da 23 3e 31 df 19 c0 c1 17 c3 bd 81 88 8c be
       0.16001214 -2.4042475 -0.09526015 -0.27447894
000060 be 74 c1 3e 18 d7 bc 3d 7b d4 48 be 4f 0c c7 be
       0.3778438 0.092207134 -0.19612305 -0.38876578
000070 3c 95 4c 3e e2 7f 87 be 07 d2 04 be 7d 31 c2 bc
       0.19978803 -0.26464754 -0.12970744 -0.023705238
000080 14 c2 54 3e 26 56 0e be a4 bb c3 bd cc b5 0d be
       0.2077716 -0.1390005 -0.09557274 -0.13838881
000090 32 b5 76 be 77 10 14 be 6e 06 25 3e 9c 39 8c 3e
       -0.24092558 -0.14459406 0.16115734 0.27387702
0000a0 55 85 36 be 52 d5 45 be 8f 91 10 be e6 b3 c3 3f
       -0.178243 -0.19319656 -0.14118026 1.5289276
0000b0 50 e1 2d bf c0 b9 a7 3e 3e f8 52 3d 1a 36 a2 bf
       -0.67921925 0.32758904 0.051506273 -1.267276
0000c0 c6 b2 a3 3e 25 ec 6f 3d bc 0f b1 3c 33 e8 bb bc
       0.3197233 0.058574814 0.021613948 -0.02293787
0000d0 2c 34 f4 bd 30 79 a1 3e c0 a4 96 3e 4b 89 08 be
       -0.119240135 0.3153777 0.2942257 -0.13333623
0000e0 4c 5c a3 bc 5d c1 50 bd ec 9f a5 be d8 5a a1 3d
       -0.019941472 -0.050965656 -0.32348573 0.07878655
0000f0 60 95 4b 3e ce 38 f2 3c 6d ba 4e 3c 21 e9 83 be
       0.19881201 0.029568102 0.01261769 -0.257638
000100 ae c2 c0 3c 6e 64 18 40 40 81 ec bd 2a 5d 1c 3e
       0.02353033 2.3811297 -0.1154809 0.15269914
000110 e6 27 3d bf 28 70 46 bc 9e 04 9f bd 2e e9 e1 bd
       -0.73889005 -0.012111701 -0.077645525 -0.110308036
000120 35 43 fd bc 37 73 28 3d f4 db ca bc c7 39 cf bc
       -0.030915836 0.041125502 -0.024763085 -0.025296105
000130 82 d4 e7 3c 36 cf 02 bb 25 14 2f bd e0 50 e7 3e
       0.028299574 -0.0019959933 -0.04274382 0.4517889
000140 65 04 48 bd 7a 29 2f bd 0b 9d 15 be 83 7a e1 bd
       -0.048832316 -0.042764165 -0.14610688 -0.110096954
000150 e8 7c d4 bc 47 97 83 bd 4b 65 18 be d2 37 cf be
       -0.025938466 -0.06425338 -0.1488239 -0.40472275
000160 09 d2 6a c0 90 70 71 be e3 66 8d bd 38 a0 bc bd
       -3.6690695 -0.23578095 -0.0690439 -0.09210247
000170 1e 40 db 3c d3 4d d2 bd b9 b1 af 3d ca 2e 3d 3e
       0.026763972 -0.1026875 0.0857882 0.1847488
000180 dc 03 54 be 53 c6 5e 3d 68 7b 9f bb 33 45 7d 3d
       -0.20704597 0.054388355 -0.004867006 0.06183357
000190 b6 73 60 3d af f4 b6 bd 2e 1e 08 bf e7 23 83 bd
       0.05479785 -0.089333884 -0.5317105 -0.06403332
0001a0 b0 38 1a be de d0 29 bd 5f 00 e7 3f 20 a5 ec be
       -0.15060687 -0.041458957 1.8046988 -0.4621973
0001b0 f2 7a a7 3e eb 73 4c bb 03 53 ae bf d9 e3 b1 3e
       0.32710987 -0.0031197022 -1.3619083 0.34744146
0001c0 d0 ba df 3d ac 54 14 bf 8e 0e 35 be 15 b0 05 bc
       0.109243035 -0.579417 -0.17681333 -0.008159657
0001d0 39 05 e7 bc b6 5a 27 3e 99 72 52 be 3f c2 99 bd
       -0.028200733 0.16343197 -0.20551528 -0.075077526
0001e0 bb bf f2 3e 0a a2 4f bd fb 16 90 bd 78 f9 02 3e
       0.47411904 -0.050691642 -0.07035633 0.12790477
0001f0 03 3f 2c bd 3e 93 79 3d d9 f8 8e 3e 80 f9 44 3d
       -0.04205228 0.060931437 0.2792423 0.048089504
000200 21 75 11 c0 75 3f e6 3d 96 df 1e be 98 b3 51 3f
       -2.272774 0.11242572 -0.15514979 0.81914663
000210 d6 97 54 38 79 a1 e9 3c cb 55 b7 3d bb 46 86 3b
       5.0686147e-05 0.028519379 0.089519106 0.004097787
000220 b1 c3 8d 3b 88 38 ad 3c cd dc 60 bb 8b f5 2e bd
       0.0043263067 0.02114512 -0.0034311295 -0.042714637
000230 bd 82 28 bd 1e 69 3a 3d 45 9b cd be d1 b1 b0 3d
       -0.041140307 0.045510404 -0.40157524 0.08627666
000240 1d 2f 51 3d 21 e0 be 3d f7 74 e2 3d 40 b7 02 be
       0.05107032 0.09320093 0.110574655 -0.12765217
000250 b6 b6 24 3f ab 97 2d 40 8b 9e 97 be aa 7c c7 3c
       0.64341295 2.712382 -0.29613146 0.024351437
000260 2b 0f 39 3e e8 82 b4 bd 03 e8 f0 be 4d 3d 9b be
       0.18072192 -0.08814031 -0.4705201 -0.30320206
000270 38 df 57 be 4b ef ed 3e 81 ce 17 be 8e fa 4d be
       -0.21081245 0.4647163 -0.14824869 -0.2011511
000280 b7 b2 9a 3d 1a 23 36 be a4 de 3d be e4 bb a6 3f
       0.075536184 -0.17786828 -0.18541962 1.302609
000290 a6 e2 aa 3e a1 67 a0 bd 8a e6 36 bf 1f 25 a6 be
       0.33376044 -0.07832266 -0.71445525 -0.32450196
0002a0 f5 ae 13 c0 22 2c 38 be b0 d9 35 be 97 1b 5c 3f
       -2.3075535 -0.17985585 -0.17758822 0.859796
0002b0 10 dd a3 bc 97 86 b0 bd 67 50 d0 be 1b 84 29 3e
       -0.020002872 -0.08619421 -0.40686342 0.165543
0002c0 6b 6d 6d be 9a 43 c9 bd 80 cf 3b 39 42 91 2c 3e
       -0.23186271 -0.09827347 0.0001791101 0.16852286
0002d0 41 75 8b bd 37 96 ce bd 9e 0f 35 be e6 bf 41 be
       -0.06809474 -0.10087245 -0.17681739 -0.1892086
0002e0 ca 97 c9 bd ff 6e 07 3e f4 bc 75 3e fd 8a 22 be
       -0.098434046 0.13225935 0.23997861 -0.15873332
0002f0 31 7a 05 be 62 23 b4 3d 0a 52 70 be d0 8b cc bd
       -0.13034894 0.08795811 -0.23468795 -0.099876046
000300 d1 5d b5 be 8e 0b df 3d a8 2b 09 bf 23 d0 64 c0
       -0.3542314 0.10890876 -0.5358224 -3.5752037
000310 52 4f c3 3d 4e cf 03 bd 32 35 d4 bb 89 af cb bb
       0.095366135 -0.032180123 -0.006476068 -0.006215994
000320 17 ec 3d bd 73 dd d6 bd 08 d0 09 3d 52 52 20 bd
       -0.04636773 -0.10491457 0.03364566 -0.039141007
000330 1c 03 95 bd a9 d5 04 bd cd 02 ec 3b e8 ef 6c bd
       -0.07275984 -0.032430325 0.0072024823 -0.05784598
000340 50 db 30 bd 42 90 94 bd 92 f0 2d be 0e ad bd 3f
       -0.043177903 -0.072540775 -0.16986302 1.4818437
000350 54 31 38 bf d5 42 a5 3e df a1 7e 3d 2c 88 9a bf
       -0.7195027 0.3227755 0.06216609 -1.2072806
000360 d1 aa a7 3e 92 52 9a 3d f6 34 fc 3d 1e ea 55 3c
       0.3274751 0.0753528 0.12314789 0.013056306
000370 e3 f0 08 be a6 0d e1 3e 6b 32 a4 3e 3d ff e8 bd
       -0.13373141 0.43955725 0.32069716 -0.11376808
000380 19 81 07 3d d8 3c 43 be ff 1a c4 be 88 7b f1 3d
       0.0330821 -0.19066179 -0.38301846 0.1179114
000390 d0 5a 83 3e f9 d3 0b 3d 78 5a c7 bc ae e1 4e bd
       0.25655222 0.0341377 -0.024335131 -0.050508194
0003a0 89 3b a1 3d 55 4e 20 3e 13 45 a6 3e 24 82 83 40
       0.078726836 0.15654881 0.32474574 4.1096363
0003b0 1d 0c 7a 3e 13 4f d1 3d cf c8 25 3c 45 28 2f bd
       0.24418683 0.1022016 0.010118677 -0.042763013
0003c0 35 7c 9a 3d 1c cf fd bd 84 7c 7e be 28 f5 71 3e
       0.07543222 -0.123930186 -0.24852186 0.23628676
0003d0 5c e9 33 bd a7 2d a1 3b 87 81 4f bd 77 cd a7 bc
       -0.04392372 0.0049187723 -0.050660636 -0.020483715
0003e0 96 e2 1e 3e bf ff 20 3f 12 8d 8b 3d 4c 21 2f 3e
       0.15516123 0.6289024 0.068140164 0.17102545
0003f0 cb b1 bf be 2d 64 f0 bc 7e a2 96 be 08 05 0c bf
       -0.37440333 -0.029344643 -0.29420847 -0.5469518

bias f4 [16]
000000 cb 2b 0b bf 82 41 0a 3e ab 66 8b bf 54 4f 75 bf
       -0.543637 0.13501552 -1.0890707 -0.9582417
000010 06 20 ec be 9b e1 15 3d d5 4d 86 bf 00 dc ec bd
       -0.46118182 0.036592107 -1.0492502 -0.11565399
000020 d2 ec 22 bf 28 d1 b6 bd 13 df 42 bd fa a9 d2 bd
       -0.6364261 -0.08926612 -0.04757602 -0.10286327
000030 36 99 03 3e a9 c3 8f bb 10 37 3c 3d 77 f6 2e bf
       0.12851414 -0.004387338 0.04595095 -0.68344826

weight f4 [16]
000000 19 06 90 3f 87 f5 1c 3f fa 65 b0 3f cb 08 87 3f
       1.1251861 0.61312145 1.3781121 1.0549558
000010 69 d3 54 3f a1 a2 cd 3e 4e 4d a3 3f a1 85 99 3e
       0.83135086 0.40163139 1.2757967 0.29984763
000020 cc 6d 9e 3f d3 82 ac 3d 8e 8e 24 3f 9b 27 5d 3f
       1.2377257 0.0842339 0.6428002 0.8638856
000030 de 43 cc 3e 3d 48 a3 3f 69 d0 86 3f 17 1f be 3f
       0.3989553 1.275642 1.0532352 1.4853238

bias f4 [16]
000000 dc ac 35 3f 19 78 df bf 30 0c da 3e f7 5b 6d 3f
       0.7096689 -1.7458526 0.42587423 0.9271845
000010 9b be 98 3f 47 df b9 be f2 1e 87 bf 39 39 ec be
       1.1933168 -0.3630316 -1.0556319 -0.46137407
000020 80 c3 2b bf c0 35 e9 3f e7 59 0f c0 69 99 99 bf
       -0.67095184 1.8219528 -2.2398622 -1.1999942
000030 c9 e0 eb be 91 71 13 bf 28 48 08 bf 2f b9 b4 be
       -0.46069935 -0.57595164 -0.532351 -0.35297534

running_mean f4 [16]
000000 c6 8c 9a bf 1e dd 3a 3f b9 73 66 bf 03 23 89 be
       -1.2074211 0.7299365 -0.9002033 -0.26784524
000010 7b 3f 81 bf 6d 0b 6e 3e ad 74 e0 bf 54 55 94 3e
       -1.0097498 0.23246546 -1.7535607 0.2897135
000020 c5 3c 32 bc 76 16 e2 bf a0 ab 0e 3e 1d 9c 07 3f
       -0.010878746 -1.7663105 0.13932657 0.52972585
000030 05 37 46 be 59 c1 28 bf 44 b3 2d bf 04 88 66 bf
       -0.19356926 -0.65920025 -0.6785166 -0.90051293

running_var f4 [16]
000000 74 42 ac 41 5e 3b 9e 41 c1 97 68 41 60 74 6c 41
       21.532448 19.778988 14.537049 14.778412
000010 d3 23 3d 42 5f b2 74 41 5f 88 5a 41 98 c0 96 41
       47.284985 15.293548 13.658294 18.84404
000020 38 81 93 41 99 1a 21 42 3b 4a 66 41 4a 9d 6c 42
       18.438095 40.275974 14.393123 59.153603
000030 90 60 ec 41 4f ed 96 41 4c 2a b8 41 70 be 6c 41
       29.54715 18.865873 23.020653 14.796494

weight f4 [5, 16]
000000 4e 9c f7 3c 2a 3a 78 bd a0 f0 48 bd 3a c0 02 3c
       0.0302259 -0.060602345 -0.049057603 0.007980401
000010 67 ba fc 3f 7f e6 fe 3c c4 72 ff 3a dd 9c 58 3d
       1.9744385 0.031115768 0.0019489159 0.05288397
000020 55 82 f7 bc 37 2a 6f bd ce 5d b4 bd a7 eb 02 c0
       -0.030213514 -0.05838987 -0.08806954 -2.045633
000030 f8 57 82 3f ac e9 e7 bd 0a ef 04 3e 48 4f 51 3d
       1.0183096 -0.11323866 0.12981811 0.051101
000040 ce 70 c5 3e 28 22 fe be 4e a5 c5 3e aa b3 b4 3d
       0.38562626 -0.49635434 0.3860268 0.08823331
000050 e4 88 4c 3d 03 1a 4e 3e a6 55 a9 bd c7 e1 37 3e
       0.049935237 0.2012711 -0.08268289 0.17957221
000060 0f fd c0 be 75 91 de c0 6f a7 00 3f 01 50 c3 bc
       -0.37693068 -6.955256 0.50255483 -0.02384186
000070 18 55 1c 3e 84 d3 4c 3f 00 98 6f bf 81 a0 c4 be
       0.15266836 0.8001025 -0.9359131 -0.38403705
000080 0f 37 65 b9 fb cd 48 bc a6 58 cf bf 0d e7 50 3c
       -0.00021859653 -0.012256141 -1.6198928 0.012750399
000090 2b 35 d4 bc 14 d7 24 bf 83 9a 0f bc ff 83 a5 3d
       -0.025904259 -0.64390683 -0.008764866 0.08081817
0000a0 a7 ff c6 3b f0 e0 12 3a bf 31 c7 bf cb 3f e0 3c
       0.0060729566 0.00056029763 -1.5562056 0.027374169
0000b0 56 3c ab bc e2 d6 b4 bd 86 79 d8 3d 9c 0b c4 3f
       -0.020902794 -0.08830048 0.10570054 1.5316043
0000c0 26 ba b3 3d d7 68 fa bd 9d 60 14 3d b2 cd cd bf
       0.08775739 -0.12227028 0.03622495 -1.6078398
0000d0 de c6 6e 3d c1 61 de bc d0 cd db 3f 71 86 6f bf
       0.058295123 -0.027146222 1.7172184 -0.93564516
0000e0 33 41 a4 bd e5 f8 5a bd 9b 04 9b 3d 32 67 ab bd
       -0.08020248 -0.05346002 0.07569238 -0.08369292
0000f0 05 e7 92 3c 10 bf 71 3e 30 35 94 be 9e f5 b5 bc
       0.017932424 0.23608041 -0.2894683 -0.022211846
000100 c8 a7 8e bf b8 d4 86 3f 20 cf 40 3d 71 87 c9 bb
       -1.1144953 1.0533667 0.04707253 -0.006150179
000110 51 0d 85 3c 7a d4 28 3c b7 81 b8 b9 51 f7 d3 bb
       0.016241701 0.010304565 -0.0003519186 -0.0064686914
000120 52 1f 87 3f cf 58 82 3c 65 84 5e 3d 6a 6c aa bc
       1.0556433 0.015911488 0.05432548 -0.020803649
000130 04 1d 06 3c 4d 22 b9 bf 7a ff de 3f 5b 51 3e bd
       0.008185629 -1.4463593 1.7421715 -0.046464305

bias f4 [5]
000000 e8 1b 8b be 00 d8 9d 3c 51 7d 92 bd d4 10 ac be
       -0.27169728 0.019268036 -0.071528085 -0.3360659
000010 96 38 f9 be
       -0.48675984

weight f4 [5]
000000 0b 39 9a 3f 2f 67 16 3f a2 ce 7b 3f da 4d 55 3f
       1.2048658 0.58751196 0.9836217 0.8332192
000010 d8 f9 cc 3f
       1.6013746

bias f4 [5]
000000 59 25 f9 3f b7 fa 74 3f 8c 92 3a c0 3f 55 12 3e
       1.9464523 0.9569506 -2.9151945 0.14290331
000010 e7 36 90 3f
       1.1266755

running_mean f4 [5]
000000 bc 43 1c 3f f0 08 42 c1 f2 1f 2a c0 60 da 70 bf
       0.61040854 -12.127182 -2.6581998 -0.94083214
000010 28 d5 01 3f
       0.50715876

running_var f4 [5]
000000 bd 4f 1d 3e ce 22 b3 3e 5e 81 78 3d 38 93 37 3e
       0.15362449 0.3498749 0.06067025 0.17927253
000010 71 33 30 3d
       0.04301781

weight f4 [16, 5]
000000 59 2b 56 3e ea f0 5f 3e 69 3c 34 3e 83 60 15 c0
       0.20914973 0.21869245 0.1760117 -2.3340156
000010 be b6 14 be e0 0d 9c bc db d7 0f 3e ae f5 a8 be
       -0.14522836 -0.019049585 0.14047186 -0.3299994
000020 96 c6 39 3e f9 1f ff bf 8b 82 07 be 86 aa ec 40
       0.18142161 -1.9931632 -0.13233392 7.395816
000030 8f bf b6 3b 17 71 f0 3c 50 a5 2c bd ff 24 94 40
       0.005577035 0.0293508 -0.04214984 4.629516
000040 e4 20 0c be 59 5d 97 3c c9 9c 08 3d fe b3 72 be
       -0.13684422 0.018477129 0.033352647 -0.23701474
000050 ca a1 d4 3e f0 ee 46 be 16 9f 48 3d 78 08 3a be
       0.41529685 -0.19427085 0.04897984 -0.18167293
000060 da 08 8b c0 22 7c 46 40 60 9c ee bd 26 6c 99 bc
       -4.3448305 3.1013265 -0.1165092 -0.018728327
000070 e1 d2 8e 3d 07 f9 41 3e 08 ca 70 3d 8b 23 59 bf
       0.06973816 0.18942653 0.058786422 -0.8481986
000080 fe 33 ec bf 55 c3 8d 3e 4b b5 a8 3e c3 cd b3 3d
       -1.8453367 0.2768809 0.32950816 0.0877948
000090 b0 1d f1 bc f2 a7 56 3c 65 6c 3f 40 1d 0c 7f bd
       -0.029433101 0.013101565 2.9909909 -0.06226741
0000a0 5a 9e e5 bd 20 c5 be be 89 af 36 3c 77 13 89 3d
       -0.11211844 -0.3725977 0.011150249 0.06693166
0000b0 b3 31 10 40 67 bc bf 3c f1 2d 1b 3e 5b 9f a2 3d
       2.2530334 0.023405267 0.15154244 0.07940551
0000c0 12 f1 bc c0 7d 90 8b bc 98 15 43 3e 7f 48 fb be
       -5.9044275 -0.01703667 0.19051206 -0.49078748
0000d0 26 11 65 40 78 ee b3 be d2 cf ce bd e8 58 95 be
       3.5791717 -0.35142875 -0.10098232 -0.29169393
0000e0 4d ea 48 3f 19 1d 9f 3f 16 ab 87 3f d4 11 2b 3e
       0.78482515 1.2430755 1.0599086 0.1670602
0000f0 11 8c 9b 3d 76 da 90 3f fc bc e5 3d a9 b2 0f be
       0.07595075 1.1316669 0.112176865 -0.14032997
000100 0a 84 2f 40 53 ba 72 c0 13 d4 b3 bd b4 d8 87 3d
       2.742434 -3.7926223 -0.08780684 0.0663313
000110 38 fc 99 bd e6 f6 24 be e6 78 ef 3a 7f 41 fd be
       -0.0751881 -0.1610981 0.0018270283 -0.49464032
000120 f5 d8 36 40 a9 29 1a bd 91 b5 b3 bd f2 ee f1 bc
       2.856992 -0.037637386 -0.087748654 -0.029532883
000130 43 fd d0 bc e1 a7 63 bd c2 a5 f1 3d fd 31 82 c0
       -0.02551139 -0.055580024 0.11799194 -4.068602

bias f4 [16]
000000 69 f8 27 3f c9 fc 20 3f 51 ec 73 3f 34 7b ce bb
       0.6561342 0.6288572 0.95282465 -0.006301308
000010 0e d8 06 bf df a2 2c 3e 92 83 c1 3d 4f f1 b5 3e
       -0.52673423 0.16859005 0.09448923 0.35535666
000020 58 52 7c 3e f3 4d 41 bf 23 5f fe 3e 23 d2 e5 be
       0.24640787 -0.75509566 0.4968196 -0.44886884
000030 0a a1 ce bd 24 31 cc be 88 3a dc be 0a c2 2b 3e
       -0.100893095 -0.3988124 -0.43013406 0.16773239

weight f4 [16]
000000 5c 78 63 3f aa 08 37 3f 8c 02 59 3f d3 c2 57 3f
       0.8885553 0.71497595 0.8476951 0.84281653
000010 b0 7a c8 3f 17 01 30 3f 31 28 02 3f 0d a3 42 3f
       1.5662441 0.6875166 0.5084258 0.76030046
000020 88 84 db 3f b4 09 9e 3f 70 1e e9 3f 7c 6a 32 3f
       1.714982 1.2346711 1.8212414 0.6969373
000030 fc e5 53 3f f1 02 3b 3f 17 3c c2 3f 2e 68 0c 40
       0.82772803 0.73051363 1.5174588 2.1938586

bias f4 [16]
000000 eb b5 8b bf 66 77 2e 3e 8d c9 c7 3f 3b 9a 6a 3f
       -1.0914892 0.17037734 1.5608383 0.91641587
000010 79 bd 3b 3f 2f 58 1d 3f 64 38 41 3f f1 c2 88 bd
       0.7333599 0.6146268 0.7547667 -0.06677807
000020 41 5e 1e bf 76 63 03 3f aa 27 0b be ad ae 9e 3f
       -0.6186257 0.5132364 -0.1358935 1.2397057
000030 49 28 d5 3e 1c 45 1b 3f 43 25 6c 3f 57 fc f4 be
       0.41632298 0.6065233 0.92244357 -0.4784877

running_mean f4 [16]
000000 c3 54 43 3e c1 82 ec 3f 47 54 f1 40 9a cb 06 41
       0.19075303 1.8477403 7.541538 8.424707
000010 72 88 63 c0 68 8d c9 40 35 4a 68 41 c5 d3 7b be
       -3.555203 6.2985115 14.518117 -0.24592502
000020 f2 17 a4 3f 98 f2 71 bd b5 30 e4 c1 c2 6a 26 c1
       1.2819808 -0.059069246 -28.523783 -10.401064
000030 1e 25 13 40 ae 90 06 c1 70 44 c0 c1 50 03 24 c0
       2.2991405 -8.410322 -24.033417 -2.5627022

running_var f4 [16]
000000 75 13 15 41 a1 c2 89 41 b6 25 b9 41 bc 39 0f 42
       9.31725 17.220034 23.143414 35.80638
000010 e5 92 b9 42 41 68 81 41 63 3f e4 41 41 cb 4d 41
       92.7869 16.175905 28.53095 12.862123
000020 cb 59 c2 41 00 fd 4e 42 97 83 d1 42 ec 3d 2b 41
       24.293844 51.74707 104.75701 10.702618
000030 6e c9 0f 42 c5 57 be 41 3d e4 83 42 d8 47 9d 42
       35.94671 23.792856 65.94578 78.64032

weight f4 [21, 16]
000000 24 a2 3c bd 2a da 44 3f 19 7e 03 be 42 1e 8b bf
       -0.046053067 0.7689539 -0.12841071 -1.0868609
000010 4b f8 e9 3f 1f ce 8f 3f 25 62 95 3e 67 9b 27 3e
       1.8278898 1.1234778 0.2917644 0.16367875
000020 3b 4b 24 bf 8d 54 98 3c 68 02 68 be bb 9f dc 3d
       -0.6417729 0.018595004 -0.22657168 0.10772654
000030 e2 5b 40 bf 06 61 54 be dd bd 33 3e 74 44 63 bf
       -0.751402 -0.20740137 0.17552896 -0.88776326
000040 92 ad ca 3e 27 e7 99 bf 08 40 4a bc e8 a4 f3 39
       0.3958555 -1.2023667 -0.012344368 0.00046471437
000050 d9 48 ec 3e 1e f3 10 bd a9 a4 11 3f 3b ce 00 bf
       0.46149328 -0.035388105 0.56891876 -0.5031468
000060 fe b9 74 bd 3d e9 c8 3e 1b 91 ca 3f 51 af 93 3e
       -0.05974769 0.39240447 1.5825533 0.28844693
000070 43 a7 d1 be b2 c2 1a bd ed cf cd bf f9 bd 71 3e
       -0.40947923 -0.037783332 -1.6079079 0.23607625
000080 87 21 d1 bf a9 26 d0 bc 30 13 43 3d b8 09 92 bd
       -1.6338357 -0.02540906 0.04762572 -0.0713076
000090 b0 64 38 3e a1 7a ca 3d a2 39 29 bf 51 3f b5 bf
       0.18007159 0.09886671 -0.66103566 -1.4159948
0000a0 3a 45 08 3e fa fb e2 3f 48 d0 11 3f 78 9b 8b 3e
       0.13307658 1.7733147 0.56958437 0.2726705
0000b0 eb 74 53 bc 75 52 18 be 34 a2 14 bf 63 3d 77 be
       -0.012906293 -0.14875205 -0.5806 -0.24144511
0000c0 6b d5 5e be ac 17 25 bf 75 25 85 3e 8e 3b b0 bf
       -0.217611 -0.64489245 0.2600514 -1.3768175
0000d0 69 6a 3d 3f aa 1a 8f 3f e3 39 eb 3e 2d 08 ee 3e
       0.73990494 1.1180012 0.45942602 0.46490613
0000e0 9e ad 15 40 da 7b 14 be a1 31 87 be 2d cd 9e be
       2.3387218 -0.1450037 -0.2640505 -0.31015912
0000f0 0b 8f 8b 3f e8 2a 39 3c b5 6c 8b 3e 83 3a 18 c0
       1.0903028 0.011301734 0.27231374 -2.3785713
000100 29 ee cb 3d ca b8 eb 3d ca 8f 8f bd 09 b0 5a bf
       0.09957535 0.11509855 -0.070098475 -0.8542486
000110 4e e4 55 be 51 39 60 bf d5 c8 69 3d 99 9a 80 3d
       -0.20887873 -0.8758746 0.057076294 0.06279487
000120 dd c1 ab be 65 91 b0 bd 57 c0 da bd ad ca 10 be
       -0.33546343 -0.08621482 -0.10681217 -0.14139815
000130 f9 a1 03 be 0c c8 d8 3f f8 53 17 3e 5d 4c bd 3e
       -0.12854756 1.693605 0.14778125 0.36972323
000140 9a 12 2b 3f 5c 0a 22 bf 87 29 2f 3e 18 1b 81 be
       0.6682526 -0.6329706 0.17105685 -0.25215983
000150 d4 fa 54 3e 81 e5 4c 3e 43 96 99 bf 53 6c 8a bd
       0.20798808 0.20009424 -1.1998981 -0.067589425
000160 18 5d 85 3e bb d6 85 bd 25 b2 bb 3f 37 4d f0 3f
       0.26047587 -0.06535097 1.466374 1.8773564
000170 27 01 25 bd f9 44 e9 bd 0c 62 c3 bf c9 a3 3b be
       -0.040284302 -0.113901086 -1.5264297 -0.18324198
000180 83 6e 1e be e5 b8 a2 3d 78 b4 0a 40 9b fb 1d be
       -0.15471844 0.07945422 2.167265 -0.15428011
000190 a8 4e 4a be d8 cd 29 3e 2c 23 4c be d8 f3 45 3e
       -0.19756567 0.1658243 -0.19935292 0.193313
0001a0 a3 c8 31 be 7a c9 e8 bd 9c e7 40 be 47 94 c3 be
       -0.17361693 -0.113665536 -0.18838352 -0.38199064
0001b0 7f 66 d6 bd cc 59 f4 bd 61 2f 59 3e 6c 3a 7b 3e
       -0.10468768 -0.1193119 0.2120948 0.24534005
0001c0 0d c4 7c bc 84 5f ea 3c 4d b6 8d bb 76 a2 5c 3d
       -0.0154276015 0.028609999 -0.0043247105 0.053865872
0001d0 c0 78 35 3c 55 54 99 bd 4f 29 ae bb 7f 84 00 bd
       0.011076152 -0.07486788 -0.005314983 -0.031376358
0001e0 7c 2f 9f bc d2 06 95 bc 50 5f 97 3c 7e 4a f0 3a
       -0.019431822 -0.018191729 0.018478066 0.0018332747
0001f0 b4 ef b3 bb e7 b5 83 3c 4e 8e db bb 89 1a 23 bc
       -0.0054912213 0.016077949 -0.0067003137 -0.009955057
000200 32 13 47 bc 77 72 e5 bb 4d 59 9d 3b 06 c4 16 3d
       -0.012150573 -0.0070021707 0.0048019052 0.036808036
000210 69 01 1e 3c 02 5c 21 bd 6b fe d5 bb 6f aa df bc
       0.009643891 -0.039394386 -0.006530573 -0.027302949
000220 3e 7d aa 3c f5 b5 e4 3b be 0d 00 3d af 93 22 b9
       0.020811673 0.006979699 0.031263106 -0.0001550454
000230 00 e5 51 3c 99 c1 44 3c 66 e9 00 bd db 6e b7 bc
       0.0128109455 0.012009048 -0.031472586 -0.022391727
000240 fb f2 6f bc d3 45 27 bc 2e 33 07 3c 49 63 91 3c
       -0.014645333 -0.0102095185 0.008251948 0.017747538
000250 90 9b 21 bc 36 59 ba bc 77 f4 db bc d0 41 e2 b9
       -0.009863749 -0.022747617 -0.026849968 -0.00043155113
000260 76 60 84 3c c2 63 5a 3c 89 76 b5 bb a1 b2 0a bc
       0.016159277 0.013329448 -0.005537812 -0.00846544
000270 cc ab b8 bc 1f f6 9b 3b d4 7f 9b 3b 3a 92 34 3c
       -0.022542857 0.0047595645 0.004745463 0.011021191
000280 1a f5 1c 3b b5 b1 18 bd 90 0f 1f bb ff e5 0f bd
       0.0023949803 -0.03727885 -0.002427075 -0.03513145
000290 fd b9 95 3c 2a 36 85 3d 63 32 e1 bc f2 b2 3e 3d
       0.018277163 0.065044716 -0.027489847 0.046557374
0002a0 08 f4 de 3c f5 67 20 ba 8e 1d 04 bc 80 8a c6 bc
       0.027215973 -0.00061190064 -0.008063687 -0.024235964
0002b0 f5 d4 df bb 2a b0 9b 3b e0 a2 21 3c 52 8a af bc
       -0.0068308064 0.004751225 0.009865493 -0.021428261
0002c0 2c 6a 03 bc 32 00 36 bc 4d 3d 9d ba 8f 49 12 bd
       -0.008020919 -0.011108445 -0.0011996418 -0.035714682
0002d0 ed 79 17 3b 8e bf e8 3c 7c c5 34 3d 41 56 11 3d
       0.0023113445 0.028411653 0.04413365 0.03548265
0002e0 45 af 01 ba 94 a0 2d bc 7d 0c b0 bc ab 42 12 3c
       -0.00049470767 -0.010597367 -0.02149033 0.008927028
0002f0 28 28 80 3c f2 3f 8d 3b bf 33 95 3c e9 44 0a bb
       0.015644148 0.0043106014 0.018213151 -0.0021098203
000300 6f 87 68 3c 6f 7e 8b 3c 0d 20 d5 ba 55 34 f9 3a
       0.014192446 0.017028062 -0.0016260162 0.0019012789
000310 89 9e 68 3c ee d9 65 bb d9 b4 0b 3a b0 9d 03 3c
       0.014197954 -0.0035072523 0.00053293776 0.008033201
000320 19 5d a0 ba 80 d2 a0 bb df 92 88 3c 1e 91 fd 3c
       -0.0012234777 -0.004907906 0.016671596 0.030952986
000330 c5 0c df 3c 95 58 ba bb 57 fd a0 bc 4a 8c 92 bc
       0.027227769 -0.0056868293 -0.019652052 -0.01788916
000340 08 f1 98 bc 03 d1 f1 3c 77 49 98 3c 4c 72 a7 bc
       -0.01866962 0.02951861 0.018589718 -0.020440243
000350 bf 85 b7 bc d3 6b 94 3c 69 51 de 3c a1 cf 8c 3c
       -0.022402642 0.01811782 0.027138429 0.017188849
000360 31 fc fe 3b 43 0f 6f 3b 67 d1 e3 bb 06 72 be 3c
       0.0077815284 0.0036477603 -0.006952453 0.02324773
000370 d9 b9 16 bd 1f ed ca bc 0d 7d bf b9 52 b8 02 3c
       -0.036798332 -0.024771271 -0.0003652353 0.007978516
000380 21 9d 67 bc 30 96 ee 3c 47 5a 9f bb ad b8 7a 3d
       -0.014136584 0.02912435 -0.004863057 0.061211277
000390 b2 24 fc 3b 00 a1 aa bd b5 95 1e bb 2e 48 fb bc
       0.007694804 -0.083314896 -0.002419812 -0.030674066
0003a0 d7 08 98 bc 7d 0a 9f bc 30 bd b3 3c d4 57 a5 3a
       -0.018558903 -0.01941418 0.021940798 0.0012614676
0003b0 fb 44 ed 3b 77 b3 ab 3c 1c 81 90 bb 4b 75 2c bc
       0.007240889 0.020959599 -0.0044099223 -0.010526012
0003c0 40 f6 9c bc ce 27 74 bb dc e4 a2 3b c6 a7 10 3d
       -0.01916039 -0.003725517 0.00497113 0.03531625
0003d0 d9 b6 2e 3c 9d 56 19 bd cd dc 69 bc 4e b3 84 bc
       0.0106637115 -0.037436116 -0.014273834 -0.01619878
0003e0 50 04 a8 3c 35 bb 87 3b a4 51 b0 3c ec 73 a2 bb
       0.020509869 0.00414219 0.021523304 -0.0049576666
0003f0 70 c0 94 3c 66 d6 59 3c 92 52 b2 bc bc 01 ba bc
       0.018158168 0.0132957455 -0.021767888 -0.022705905

bias f4 [21]
000000 24 17 9d 3d 5c a9 4d bf 24 d2 93 3d 38 29 07 be
       0.07670429 -0.80336547 0.072178155 -0.13199317
000010 0c a9 0e 3f de f4 ad bf f4 64 1d c0 f3 c4 c9 3c
       0.55726695 -1.3590353 -2.4592867 0.024630046
000020 f3 eb 88 bc c3 2e a1 3c 42 8e 10 3d 2f 55 00 bd
       -0.016714072 0.019675618 0.035291918 -0.031331237
000030 ee 48 de bc 62 b8 1c bd 26 fe 87 3c 75 d8 2a bc
       -0.027134385 -0.03826178 0.01660068 -0.010427584
000040 4d 58 f7 ba a7 50 4b 3d 6b 3c 27 bd 35 f9 04 bd
       -0.001887092 0.049637463 -0.040829103 -0.032464225
000050 98 45 22 bc
       -0.009904288
