Model/Beispiel 3/model.pt (torch_old, 21721 bytes, 20 tensors)

weight f4 [16, 21]
00000000: 0467 8abd e6cf 33c0 1e1c 083d b9f2 32bf
00000010: d059 843e 7311 0fbf 262a 1ebe 4ccb d3bd
00000020: b167 8f3e e55d 2abf b886 80be 30d6 6bbf
00000030: 0ee5 2ebf eec0 efbc f88a b33e aa27 5bbd
00000040: 7a8d 07bf 47ab 23bf 82a8 f33e 843f 34bf
00000050: 6376 53be 11b0 aabc 04be 013f d201 26be
00000060: d466 373d 636a 703c 17f3 2e3e b0e4 97c0
00000070: 58cd 183f 438d 3fbf c769 f43e 2abe 9e3d
00000080: 63ac 1cbe 3840 8a3d cf09 4f3f 0bf0 a93e
00000090: 49ed 05bf cfb5 363e d555 a33d c852 873e
000000a0: cb67 14bc 214f 72be 93b4 5f3e 1669 f4be
000000b0: 13ea e0bc a400 ccbe b2b7 3c3e 42db 1fbf
000000c0: 5542 4ec0 3578 0a3f 39fc 15bf b9b6 c43e
000000d0: 328d 6d3e 109b 34bf dcd5 b1be ef38 5f3f
000000e0: b049 c63e e2f8 e5be 4e46 7dbd a2b0 453e
000000f0: 740f 9b3e f807 56be 1ef0 62be f2c3 e5be
00000100: b471 90be 550f ae3e 95d8 32be 9a86 28c0
00000110: f111 efbd 82ff 403e d2e7 52bc 0265 8ebc
00000120: 6a63 56bf 00a8 83bc 3f13 3c3f 11f7 20bf
00000130: 68a1 be3e ad0d 103e 9ddc 10be 4cf9 4bbe
00000140: 7b19 463e acf1 13bf 42c7 c23d 8ca7 0b3f
00000150: e219 0f3e b298 dabe d7f9 8d3d a041 6940
00000160: b364 623e c34a 963e 5760 9c3c c602 9cbe
00000170: c8c9 3abd 3fc4 e93e a5dc d63e e797 f23d
00000180: 6858 a1bc e43b 58be e38d c4be 97f8 033d
00000190: b0a3 81bd 088e 2a3f 1d27 d43e c7b4 3b3e
000001a0: 2950 54be 0579 45bd 5b33 af3d 8491 5540
000001b0: 1651 04bf 3975 e93c ec5f 9abe 86f2 89bd
000001c0: abaa e7be 1fdd ccbe 4f9d b5bd c52c 1f3f
000001d0: 7907 61be 670b 4d3e 7766 cebd ddea 89bf
000001e0: 6d06 75be c0c2 aa3e aab7 883f f326 afbe
000001f0: 4e08 0f3f fdf6 81bd f1df 09c0 8500 6b3f
00000200: effc 10be 44df 8e3d fc1c e03b 455d 1e3f
00000210: ca16 ab3d 40f1 e23e d320 c33d d3c5 173d
00000220: a77e 153e c98a d7be b5b8 723e d9bf 363e
00000230: 7937 3fbf b6b0 21be 1b72 fb3b ad53 753e
00000240: b4c0 9dbe 834b 16bf 0d98 b8bd f759 2140
00000250: 7948 4fbf 4583 823d 34cf fcbc 76ee da3c
00000260: 0713 10bf 9869 93bd 9b4c 02bf 7b63 5fbd
00000270: 8777 153c ea48 5dbe aa1a b53e 0b30 88be
00000280: 42f9 23be 79a2 433f d4c5 f93d 7845 a7bb
00000290: 59cc 9fbe 3f28 9d3e af9e d33e 2984 5f3d
000002a0: 944e d53a c1bd 0ebf 3378 2b3e 91f4 35be
000002b0: 4f07 e2bb 7d66 a9be 8dd9 7e40 9757 1abf
000002c0: 92e8 403f c390 cabe 74d4 9d3d 34bc bcbd
000002d0: 7c35 0ebe ed8a 39bf 0352 c1be d57b ff3e
000002e0: a885 73be f045 0c3e f5a1 c7be 26bd 0ebd
000002f0: 97f7 873e d5bd 193e 9e36 e0be e7bb 8b3d
00000300: f4a8 8540 b420 813e f16f 803e 5c96 743c
00000310: 0471 aebe 65c7 56bd a3b4 033f 23d1 f03e
00000320: e635 123e 4ee7 afbc 1ad7 73be c755 d8be
00000330: 376a 213d 10ad 81bd 9d53 443f 5f2e f53e
00000340: 1aee 4a3e fde8 80be b130 b33d 1c36 47bf
00000350: bdd8 c03e d910 5cbe fdc5 3dc0 d5ac f3be
00000360: ef68 0d3d b7d0 4d3e fe43 c83b 3c56 d1be
00000370: 3e54 943e 2b51 0b3f dd15 42bf 4036 5f3f
00000380: e87e c13d 9829 41be 289b aebe 5618 263e
00000390: 1e0d 81bf 9181 f3be 24ae 4c3f a3e3 c3be
000003a0: 4ba5 423f e214 dabc b5ee 2cbe c476 14c0
000003b0: eafc f63e fc5c 573d a0bb bb3e 4257 d43d
000003c0: e7c6 12be 20b5 d93e 6493 643f 1735 98be
000003d0: 972b 3b3f 6f13 97bd a6c3 94bd 77b6 80bd
000003e0: c575 c53e 1410 5fbf 29b4 dcbd fee8 383f
000003f0: b8e5 8b3e 099b 11bf 716a 7d3e 3b27 b43f
-0.0675793 -2.809564 0.03322994 -0.69901615 0.25849771 -0.55886 -0.15445766 -0.1034151
0.28008798 -0.6654952 -0.25102782 -0.921237 -0.6831826 -0.0292668 0.35066962 -0.053504623
-0.5295025 -0.63933223 0.475895 -0.7040942 -0.2065063 -0.020835908 0.50680566 -0.16211632
0.0447758 0.014673802 0.17084919 -4.746666 0.5968833 -0.74824923 0.47736952 0.07751115
-0.15300135 0.0675053 0.8087434 0.3319095 -0.52315193 0.17842792 0.079753555 0.26430345
-0.009057949 -0.23662998 0.21846227 -0.47736424 -0.027455365 -0.3984424 0.18429449 -0.62443936
-3.2227986 0.5408967 -0.58587986 0.38420656 0.23198393 -0.70549107 -0.34733474 0.8719625
0.38728094 -0.44916445 -0.061834626 0.19305661 0.30285227 -0.20901477 -0.2216191 -0.44876057
-0.2821175 0.33996072 -0.17465432 -2.6332154 -0.11673344 0.18847468 -0.012872653 -0.017382149
-0.83745444 -0.01607132 0.7346687 -0.62876993 0.37232518 0.14067717 -0.14146657 -0.19919318
0.19345658 -0.57790637 0.09510662 0.5455253 0.13974717 -0.42694622 0.06932419 3.6446304
0.22108726 0.29353914 0.019088907 -0.30470866 -0.04560259 0.45657536 0.41965213 0.11845379
-0.019695476 -0.21116596 -0.383895 0.032219496 -0.06330049 0.6662297 0.4143609 0.1833068
-0.20733704 -0.048211116 0.08554717 3.3370066 -0.5168623 0.028498279 -0.30151308 -0.06735711
-0.45247397 -0.40012452 -0.08867895 0.6217769 -0.21975507 0.20023881 -0.10078137 -1.07748
-0.23928232 0.33351707 1.068105 -0.34209403 0.55872047 -0.063459374 -2.1542933 0.9179767
-0.14158987 0.06976178 0.0068393927 0.6186107 0.08353956 0.44324684 0.09527745 0.037053894
0.14599095 -0.42098072 0.23703273 0.17846622 -0.7469402 -0.15790066 0.0076735145 0.23957701
-0.30811083 -0.5870897 -0.090133764 2.521116 -0.8096996 0.06372694 -0.03086052 0.026725035
-0.56279033 -0.07197875 -0.5089814 -0.05453823 0.009122736 -0.21609846 0.35371906 -0.26599154
-0.16013053 0.7641979 0.12195936 -0.005104717 -0.31210592 0.30694768 0.41332003 0.054569397
0.0016274028 -0.5575829 0.16745071 -0.17769076 -0.006897844 -0.33086005 3.9820282 -0.602899
0.75354874 -0.3956357 0.07706538 -0.092155844 -0.1388759 -0.7247761 -0.37757882 0.49899164
-0.23781455 0.13698554 -0.3899075 -0.034848355 0.26556084 0.15013821 -0.4379167 0.06822949
4.176874 0.25220263 0.25085405 0.014928427 -0.340706 -0.05243625 0.51447505 0.4703456
0.14278373 -0.0214726 -0.23812523 -0.42252943 0.039407935 -0.06331837 0.76690084 0.4788694
0.19817391 -0.25177756 0.087495215 -0.7781694 0.37665358 -0.21490802 -2.9652092 -0.47592798
0.0345239 0.2009915 0.006111621 -0.40886104 0.28970522 0.5442073 -0.7581461 0.87192154
0.094480336 -0.18863523 -0.3410275 0.16220221 -1.0082128 -0.4755979 0.7995322 -0.3825961
0.7603347 -0.026621286 -0.16887935 -2.3197489 0.48239833 0.05257891 0.36666584 0.103682056
-0.14333688 0.42521 0.892874 -0.29728004 0.7311339 -0.073767535 -0.072638795 -0.062848024
0.38566414 -0.8713391 -0.1077655 0.7223052 0.273237 -0.5687719 0.24747635 1.4074472

bias f4 [16]
00000000: 6c79 8abd ec2b fabe 42cb 4cbd 0f72 b03d
00000010: 910c 1bc0 ad4f 5e3d 086f 78be 80ed 09be
00000020: c45a f2be 61ed 0940 7c4a 88be 05bf 21bd
00000030: e705 513e 59e8 bc3e 4d4d e4be 22c0 1e3d
-0.06761441 -0.48861635 -0.04999853 0.08615505 -2.422642 0.054275203 -0.24261105 -0.13469505
-0.47334874 2.1551135 -0.26619327 -0.03948881 0.20412408 0.36896017 -0.44590226 0.03875745

weight f4 [16]
00000000: 9067 2e3e 7f99 3d3f 5289 ea3e 217f 873e
00000010: 0e5d f33f 95ee c53e c1d1 823f 1705 423f
00000020: 7113 703f 45da fb3f 4271 973f 6f89 003f
00000030: 4a20 113e c2ab 973e eb84 853f 1a44 f73e
0.17031693 0.7406234 0.45807892 0.2646418 1.9012773 0.38658586 1.0220262 0.75789016
0.93779665 1.9675986 1.1831439 0.5020971 0.14172474 0.29623228 1.0431188 0.48294145

bias f4 [16]
00000000: 100c e33e ab91 533f acda 0cbf eeb9 52be
00000010: 7641 6d39 d22e 4a40 8efe 91bf 8773 723f
00000020: d9ce 7cbf e7ef bcbd b2f6 54bf be9d 043f
00000030: 8f30 9d3e 2fed 84be d83f 5d3f ab50 023f
0.4434514 0.82644147 -0.55021167 -0.20578739 0.00022626467 3.1591077 -1.1405809 0.9470753
-0.98753124 -0.09225445 -0.8318893 0.51803195 0.3070111 -0.25962207 0.8642554 0.5090434

running_mean f4 [16]
00000000: 8621 ae3f dad6 d5c0 8f01 7dc0 5102 8840
00000010: 603a 88c0 3631 a4c0 4efa ef3e 2a67 83bf
00000020: 74cb 9a40 363e 633d 2955 8840 735d 5240
00000030: b1a4 f1be 8994 cabf a5ce c1c0 9a99 79c0
1.360398 -6.682477 -3.9532201 4.250283 -4.257126 -5.131007 0.46870655 -1.0265858
4.8373356 0.05547925 4.2603955 3.2869537 -0.47195962 -1.5826579 -6.056475 -3.9

running_var f4 [16]
00000000: a1ab 5641 41dc c142 65b7 5442 006d 0642
00000010: e4e9 9f41 34e7 1042 68fe e441 ebba 1342
00000020: 83fc 8742 7f06 cf41 c1ad 0742 cb77 dc41
00000030: 0eed 5c41 c48f 1a41 52d9 5c42 6883 b541
13.416902 96.93018 53.179096 33.606445 19.989204 36.225784 28.624222 36.932537
67.99319 25.878172 33.91968 27.558493 13.807875 9.660099 55.212227 22.689163

weight f4 [5, 16]
00000000: cde6 9fbe 301e 863a b88f 813d 2484 0dbf
00000010: d7b1 473e 9d51 0d3e 9bac f9bf c6fb ea3f
00000020: c761 f93c 0cd4 3bbe 38a0 823d 5ab5 b63d
00000030: 4130 a4be b739 f23e 9e45 8f3d 98f2 4ebd
00000040: a9f4 a0be 165d 02c0 fb9f c3bf 0431 f53c
00000050: e4c2 783e 42b4 67bd 25f3 553d b69e 8dbd
00000060: 994f da3f a14b 68be 6fad c8bd b3f2 383c
00000070: ec5b 09be f45d 6e3c f423 473d 3d67 a93c
00000080: 9501 4cbf e1b5 5d3d ecdf 90bd 97f2 8c3e
00000090: 1659 5a3d 3207 b8bd 61e3 2f3e d087 6abe
000000a0: 68b7 b8bd 937d 3cbd 732e b93f ba18 9fbf
000000b0: 2564 11bf dcdb 96bd a296 dfbf c8ff dcbc
000000c0: 4a49 55bd 79c3 6d3a 02f9 2cbb 9d3f 773b
000000d0: 487a af3f 219e 113c ad09 4c3a 3428 adba
000000e0: 0b28 0b3c 7bef a9bf 51f9 75bb b76f 40bb
000000f0: 7897 cf3d ae1e 6f3b bf0c a33a 9d35 8bbc
00000100: 2cea b0bd d77b 03bd a755 4dbd 7a08 46be
00000110: 3923 09bc 3d59 7140 7057 2eb9 a294 82bd
00000120: 73f7 1d3d 8a11 e43c 8ad0 863b c182 f33d
00000130: b428 bdbe b05b 08be 3c3d 013d 0638 01c0
-0.31230775 0.0010232385 0.0632624 -0.55279756 0.19501434 0.13800664 -1.95058 1.8358085
0.030442132 -0.18342608 0.063782156 0.08921309 -0.32068065 0.47309658 0.069957 -0.050524324
-0.3143666 -2.0369315 -1.5283197 0.029930599 0.24293095 -0.05656839 0.052233834 -0.06915037
1.7055541 -0.226851 -0.09798705 0.011288333 -0.13413972 0.014548767 0.048618272 0.02067911
-0.79689914 0.05412853 -0.0707396 0.2752883 0.053307615 -0.089857474 0.17176582 -0.22903371
-0.09019357 -0.046018194 1.44673 -1.2429421 -0.56793433 -0.073661536 -1.7467844 -0.026977435
-0.052071847 0.000906996 -0.0026393537 0.0037727125 1.3709192 0.0088877985 0.0007783424 -0.0013210834
0.008493434 -1.3276209 -0.0037532637 -0.0029363462 0.10136312 0.0036486792 0.0012439712 -0.016993338
-0.08638415 -0.032100525 -0.050130513 -0.19339171 -0.008370214 3.7710717 -0.00016626506 -0.06376006
0.038566064 0.027840395 0.0041142153 0.11890174 -0.36945117 -0.13316226 0.03155254 -2.0190444

bias f4 [5]
00000000: 7d53 af3f 6ba4 ca3e c221 b3be 86e7 74bd
00000010: e575 2c3f
1.3697354 0.39578566 -0.34986693 -0.05979111 0.6736739

weight f4 [5]
00000000: 60bc b83f 8a29 603f 8c7e 813f a5a7 193f
00000010: cce9 903f
1.4432487 0.87563384 1.0116744 0.6002143 1.1321349

bias f4 [5]
00000000: 6b5c 94bf 1555 82bf 52b5 64bf c87c b63f
00000010: 6431 9ebf
-1.1590704 -1.0182215 -0.8933917 1.425683 -1.2358823

running_mean f4 [5]
00000000: bebe 1140 fb46 a8bf 2992 34c0 03d3 0f3b
00000010: e348 3641
2.277267 -1.3146662 -2.821421 0.002194584 11.392795

running_var f4 [5]
00000000: 322e 0c3e cbb8 ce3e 57c2 2e3f cd83 563c
00000010: acfe 743e
0.13689497 0.4037536 0.6826529 0.013092947 0.23925275

weight f4 [16, 5]
00000000: 2279 2e3e c3f3 eabe 760c c4bd 7007 a03c
00000010: bc29 ad40 e88c ed3d bd0a 213d 98df 15be
00000020: 9992 b3c0 70fd a63d 8230 90bd 2dcb 6c3e
00000030: aca2 d2bd 7d14 80bd a5ac dac0 e2ea 02c1
00000040: 8700 e5bc b100 4e3d f543 d7bc c1db 053e
00000050: f82c ca40 1f51 ee3b a8b3 51bc e48e 6c3d
00000060: 3672 59be 7be6 cbbf 4895 14bf 2f25 04bf
00000070: c556 0ebf 5be4 1bbf 76d1 d9bc baf2 7abe
00000080: daff 853e 1561 21bc 8ebf c840 2fb4 803e
00000090: 6f25 003f 6b5c 03bf 6d9e ef3f 76db 80bf
000000a0: 8f1d 683e 1aee cd3e c805 8e3f f004 a9bf
000000b0: 24a7 a23e 421f 07c0 1be1 75be 706c 9fbe
000000c0: 38c5 7abe 2ae1 51be 8ad9 4f3f e782 b1be
000000d0: 3aa7 9cbf b32f 173e 147f 89bf cb26 c1bd
000000e0: 0834 33be f4d2 b5be 8567 7440 b04c 4b3d
000000f0: b712 a2bc ae82 e8c0 e38d 6bbe 1506 ae3d
00000100: d7dd 19bd 09b3 883c a7ec c440 3490 4b3e
00000110: a536 8abd 04b0 debb 2fac 0e3e c443 8d3c
00000120: e7c8 c640 e382 35bd 11fa 8abd f42d e6bd
00000130: 9953 b2bd 7f5b e8c0 563c 3f3d a967 a33d
0.17038396 -0.458891 -0.09572689 0.019534796 5.4113445 0.11599141 0.03931688 -0.14636075
-5.611645 0.08153808 -0.07040502 0.2312438 -0.102849334 -0.06253908 -6.833575 -8.182344
-0.027954353 0.050293628 -0.026277522 0.1307211 6.3179893 0.007272854 -0.012799181 0.05775346
-0.21234974 -1.5929712 -0.58040285 -0.5161924 -0.5560115 -0.6089532 -0.026589137 -0.24506655
0.26171762 -0.009849806 6.273383 0.2513747 0.5005712 -0.51312894 1.8720223 -1.0066974
0.22667526 0.4022072 1.1095514 -1.3204632 0.31768143 -2.1112828 -0.24011652 -0.3113742
-0.24489295 -0.2049605 0.81191313 -0.34670183 -1.2238533 0.1476429 -1.0741906 -0.09431227
-0.17500317 -0.35512507 3.8188183 0.04963368 -0.019784315 -7.265952 -0.23003344 0.08497254
-0.03756508 0.016686933 6.153888 0.19879228 -0.06748704 -0.006795885 0.1393287 0.017244227
6.212024 -0.044314276 -0.06785978 -0.112392336 -0.08707351 -7.261169 0.0466884 0.07978756

bias f4 [16]
00000000: 13ce 6b3e 2c2f cd3e 855c c73e 6150 013f
00000010: 5639 f8bf 6e17 293d 8ca4 8cbf b5aa a8be
00000020: f9bb 4b3f 8a64 c43f 7dd1 eebe b845 05bf
00000030: a062 b43f b6db 54be a8d7 ecbf 85d1 2740
0.2302783 0.40075052 0.38937774 0.50513273 -1.9392498 0.04128211 -1.0987716 -0.3294274
0.795837 1.5343182 -0.46644202 -0.5205951 1.4092598 -0.20786938 -1.8503313 2.622163

weight f4 [16]
00000000: 2e61 593f 0e8e da3f a70f 9b3f 72bd 973f
00000010: 406a 9c3f 73a6 023f 121d 5f3f 132d cb3e
00000020: 887b fe3e d884 533f b735 d73e 5636 9a3f
00000030: 0a56 7f3f ae75 5f3f 65bf a03f 64f9 ba3f
0.8491391 1.7074602 1.2114152 1.1854689 1.2219925 0.5103523 0.8715373 0.39682826
0.49703622 0.8262458 0.4203317 1.2047832 0.9974066 0.8728894 1.2558409 1.4607358

bias f4 [16]
00000000: 62a6 59bf 9ea6 073e ca94 9a3f 3e07 203f
00000010: 43df 4e3f c786 c03d 0cd8 2f3f 336b 463f
00000020: ca55 94be 091b ebbe fb63 d93b 06ff a43e
00000030: c654 353f dedd 3a3f 5c8f 5c3f a12c bf3e
-0.85019505 0.13247153 1.2076657 0.6251105 0.8080942 0.09400707 0.68689036 0.77507323
-0.28971702 -0.45919064 0.006634233 0.32225817 0.7083248 0.7299479 0.8615625 0.37338737

running_mean f4 [16]
00000000: dd79 7bbf 0ad9 f3c0 54c2 fe3f 6c60 0240
00000010: 60bb 42c0 cc44 8c3a f141 2bc0 4c33 2140
00000020: 92ce cabf bc6e e53f 1386 743e 1301 a240
00000030: 4ccf 6b40 60a9 07c0 d3cc 57c0 11e2 8c40
-0.98232824 -7.620244 1.9903054 2.0371351 -3.0426865 0.0010701655 -2.6758997 2.518756
-1.584429 1.7924418 0.2387927 5.062631 3.6845274 -2.1197128 -3.3718765 4.402596

running_var f4 [16]
00000000: c09c 2a41 47d7 3f41 68b1 7f41 4f13 0142
00000010: c37a 9741 a768 b03f 10b3 5141 de51 d33f
00000020: 59c9 463f 7dfb 0540 c68e 013f d987 ad40
00000030: 99ba 5e40 b0bc 2140 ab21 7e40 b947 b140
10.663269 11.990058 15.980812 32.268856 18.934942 1.3781937 13.106216 1.6509359
0.7765098 2.0934746 0.5060848 5.422833 3.480139 2.5271416 3.970805 5.540005

weight f4 [21, 16]
00000000: 387c 2b3e 1952 8d3c 2e0e 0dbe 314c f2bf
00000010: 69b7 0540 1df9 7f3e 1735 343d 36d6 14be
00000020: 6843 a23b 175f dabe 2396 c0bd 0b51 243d
00000030: 7aba a33c 1001 04bd 1886 8b3d 15c6 a33c
00000040: c456 923f c9b5 12bf 461c 78bf 05d0 8dbd
00000050: 9067 9d3e 88c8 42bf 3f0d 7c3e 1e40 b9be
00000060: 616d f93d 2c33 763f 792e 453f dd39 37bf
00000070: 3edf 2dbe fd35 53be d96e eabe 5681 08bf
00000080: 73a3 4a3f b1fb e03d 337a e7bf 4b2f 36bd
00000090: c9b8 9a3c 936f 953d 50fe e13f 57fa 583d
000000a0: e719 8bbc e677 93bd 32b6 97bb 4169 a03b
000000b0: e965 143d 79ab bb3c 1df2 f9bb e007 f63c
000000c0: 5c68 00bf 5254 c5bf 54d4 9e3e 1dc7 f33d
000000d0: f1bc f63e 0f29 7b3f 52d6 c13e 146d dc3f
000000e0: c21f 8dbf 6073 9abf 7946 68be 21cd f63f
000000f0: a270 a2bd 81ee 5cbe 9e50 7c3e b0a0 a7bd
00000100: fd02 40bd 20bc 0b3d 51aa c5bc 874d 1a3d
00000110: ad62 65bd 163b 80bd 87c6 fc3c 6de9 d0bd
00000120: 41c6 f13c b9f4 e53d 6de1 dc3d 63a0 c8bc
00000130: d7e4 e0bc c97e 1ebd f7e3 0ec0 cbb4 ff3f
00000140: 4807 40bf 1b30 a83f ebb7 0b3f 9e41 293e
00000150: 4fae 363e fc29 2dbe 2c4a 41bc 2b04 aa3d
00000160: ee5a b9be 073f e23d 433d 013f a156 0c3f
00000170: a795 5fbc c173 e2be 4efc 7cbe 6387 a7be
00000180: b98d ddbd 674b c5bc a192 823d 9b04 5cbc
00000190: 1064 a73d 067d c53d ce74 8b3b 8dc8 ec3b
000001a0: 42a8 3fbd efe4 efbd a40c febb 832a 4c3d
000001b0: 691d f6bf 0794 0740 20ef 0f3c 1305 893c
000001c0: 7ce0 1bbe 06d5 a8bb dc4f ee3d b16a eabc
000001d0: e866 e73c 9406 373c c10c a23b 9f9f 8bbc
000001e0: 2249 753c a010 e3bc eafd 013c e903 3e3c
000001f0: 256e 9cbc 76e5 a7bb e97d 043c 3b8d 8f3b
00000200: 7d77 bcbd 25d1 56bc d1fa 943d f949 70bc
00000210: dd3f edbc 9e93 3dbd c0fe d73c a510 16bc
00000220: 54c9 adbc 7b2c 943d 36c1 093b e4f7 47bc
00000230: f337 203c adab 5d3c 3180 b1bc 511d 43bb
00000240: 8771 7fbe cb6a 083c ace6 1a3e 93c0 1cbc
00000250: e16b 7bbc 4eba 173c 32f4 033d d3a1 793d
00000260: b3c7 c23c 2866 463d 95a5 7fbc c57e 29bd
00000270: c851 9f38 b3a8 2b3b d10c bfbb c9d1 683b
00000280: 0335 353e 7013 d2bc b260 00be 34b1 3d3c
00000290: f9d7 37bd 6c37 86bd 0766 ecbc e448 5bbc
000002a0: b18b c3bb 507a e43d 6bbf b73a ade5 db3c
000002b0: 3677 683c 5fba ea3b 8ba6 20bc ad18 d2bb
000002c0: cfdf 11bb 7674 553c 9245 023c 369b 28bc
000002d0: 81b0 babc c19e 653b f4b7 cabb 3746 043d
000002e0: 21ad 913a 30a2 063d 61cf c73c 0ff0 82bc
000002f0: 5ea0 9d3a bf86 63bc 7b91 ccbc 1cb2 ad3c
00000300: d54a f5bd 4a02 843c ea61 933d 0e16 dfba
00000310: 2ae3 50bb 1d9f 56bc b06a 4abb 004d 983c
00000320: 64e4 d2bc f7ec b4bb e682 8a3b edca 7d3a
00000330: 638a 9c3a a9ce 32bb e165 07bc 6ae2 edbb
00000340: 3eca c73d 0b3f 63bc 221b 81bd 9197 84bc
00000350: e14c 01bb 3dde 4a3d 27e9 73ba 70e6 93bc
00000360: 3a86 6f3c 658e 6cbb 9e79 c43c f3c6 d93b
00000370: 4c80 91bc c1ed 943c 9814 2cba 033b 21bb
00000380: 7b48 1bbe 8e9c 6dbb a0b1 ec3d e368 cbbc
00000390: 7a55 e33c 0545 893c d848 153c bb1d 82bc
000003a0: ebeb 593c 2869 22bd dbf8 193c 3d95 f23b
000003b0: 4f6c 9cbc f725 d7bb 77d1 153c e7d6 373b
000003c0: f87b a6bd 74fb 57bc ff84 8a3d a0f6 83bc
000003d0: bcd4 fdbc 8f97 33bd 6a80 e93c 16b2 2ebc
000003e0: f26b 93bc 7678 8c3d bb25 303b 73b0 2cbc
000003f0: 2c41 0b3c 1c1b 613c 491d a3bc d1e1 e2ba
0.16746604 0.017251061 -0.1377494 -1.8929502 2.0893195 0.24997373 0.043995943 -0.1453484
0.004951883 -0.42650673 -0.09403636 0.04011635 0.01998638 -0.032227576 0.06812686 0.019991914
1.1432729 -0.5730863 -0.9691814 -0.06924442 0.30743074 -0.76087236 0.24614428 -0.3618173
0.121790655 0.9617183 0.77024037 -0.7157267 -0.16979691 -0.20626064 -0.45787695 -0.5332235
0.79155654 0.10985506 -1.8084167 -0.044478696 0.01888694 0.07296672 1.7655735 0.052973118
-0.016980125 -0.07200603 -0.0046298737 0.0048953597 0.03623 0.022908913 -0.007627739 0.030033052
-0.5015924 -1.5416358 0.31021369 0.11903212 0.48191026 0.98109525 0.37858826 1.7220788
-1.1025317 -1.206646 -0.22683133 1.928135 -0.07931639 -0.21575357 0.24640128 -0.081849456
-0.04687785 0.034114957 -0.024129065 0.037671592 -0.056002308 -0.0626127 0.030856384 -0.102007724
0.02951348 0.11228318 0.10785184 -0.02449054 -0.02745287 -0.03869513 -2.2326639 1.9977049
-0.7501111 1.3139681 0.5457751 0.16528937 0.17839931 -0.16910547 -0.011797469 0.08301576
-0.36202186 0.11047178 0.504841 0.54819685 -0.01364652 -0.44228938 -0.24705622 -0.3272048
-0.10818047 -0.024083806 0.063756235 -0.013428832 0.08173382 0.09642987 0.0042558676 0.007226056
-0.046791323 -0.117135875 -0.0077529717 0.04984523 -1.9227725 2.1184099 0.008785039 0.016726052
-0.15222353 -0.0051523475 0.11636326 -0.028615328 0.028247312 0.011171002 0.004945368 -0.017043887
0.0149710495 -0.027717888 0.007934073 0.011597612 -0.01909549 -0.0051237894 0.00808666 0.0043808497
-0.09202478 -0.013111387 0.07274402 -0.014666074 -0.028961116 -0.046283357 0.026366591 -0.009159242
-0.021214165 0.072350465 0.0021019704 -0.012205098 0.009778964 0.0135297 -0.021667572 -0.0029772113
-0.24945651 0.008326243 0.15127057 -0.009567398 -0.015345545 0.009260727 0.032215305 0.060945343
0.023776865 0.048437268 -0.015603443 -0.041380662 7.596944e-05 0.0026193082 -0.0058303853 0.0035525432
0.17696004 -0.025644034 -0.12536886 0.011577893 -0.044883702 -0.0655354 -0.028857244 -0.013384078
-0.0059675802 0.11156142 0.0014018839 0.026842916 0.014188578 0.0071633304 -0.009805332 -0.006411633
-0.0022258644 0.013028255 0.007951157 -0.010290911 -0.022789242 0.0035037252 -0.0061864797 0.032293525
0.0011114219 0.032869518 0.024390878 -0.01598361 0.0012025943 -0.013887106 -0.024971714 0.021203093
-0.11977164 0.016114373 0.0719641 -0.0017020123 -0.0031873682 -0.013099459 -0.0030886345 0.018591404
-0.02574367 -0.0055214125 0.00422703 0.00096814224 0.0011943098 -0.0027283824 -0.008264036 -0.0072596567
0.097553715 -0.013870011 -0.06304003 -0.016185554 -0.0019729661 0.04952835 -0.0009304457 -0.018054217
0.014619404 -0.0036095616 0.023983773 0.006646031 -0.017761372 0.018179776 -0.0006564348 -0.0024601824
-0.15164368 -0.0036256644 0.11557317 -0.024830287 0.02775072 0.016756544 0.009111606 -0.015883317
0.013300876 -0.039651066 0.009397711 0.0074030445 -0.019094614 -0.006565805 0.009144179 0.0028051676
-0.08129114 -0.01318251 0.06763648 -0.01610881 -0.030985229 -0.04384571 0.028503615 -0.010662576
-0.017995808 0.068589136 0.0026877958 -0.010540116 0.008499425 0.013739374 -0.019911425 -0.001730973

bias f4 [21]
00000000: c91c 54bd c213 1440 183b 7dbe bbd3 22bf
00000010: aa85 a7bc eae4 ecbf cddf 963c efad 03bc
00000020: c397 4b3c 5cd4 23bd 1a80 403d b0cc 6ebc
00000030: 3816 353c 92ea ba3c 9de1 24bc 3487 8c3b
00000040: cef1 23bd 26a0 463d 76ec 76bc 42ce b03c
00000050: 842d cb3c
-0.051785264 2.313706 -0.24729574 -0.63604325 -0.020449478 -1.8507359 0.018417263 -0.0080370745
0.0124263195 -0.039997444 0.046997167 -0.0145751685 0.011052661 0.02281693 -0.010063556 0.0042885784
-0.040025525 0.048492573 -0.015071025 0.021582726 0.024801977
