Model/Beispiel 1/model.pt (torch_old, 21757 bytes, 20 tensors)

weight f4 [16, 21]
00000000: 772f 983e 134c a7c0 0ba5 eb3f e05d ab3d
00000010: 569f 88be 624a 2dc0 f4ae b6c0 0249 923f
00000020: 2529 293f a2b6 88bf 5df1 0d40 f374 81bd
00000030: e11a a53f aa6f 7c40 5b52 253f 1f94 563d
00000040: bdc6 19c0 a6bf 623e 509a 0abf 6d69 e93e
00000050: 9f6a 1dc0 dafc 753f 9719 92bf 13eb c8c1
00000060: 8dc7 fc3e 925e 81be 9e49 c0bf fd67 07be
00000070: f410 a3bf ac8b c83f afc7 a73f a44e ae3e
00000080: 914e 9c3f ad45 37bf 794b d0bf d4da c8be
00000090: 523e ba3e 31aa ebbf 6586 28bf 4d23 603f
000000a0: 5f9d 5abf 83e3 12bf f6bb e7bd 1bd7 97bf
000000b0: 8aeb 4d3d 31aa dfbe 7515 3bc1 ba43 1c40
000000c0: a76b 85be 3c29 28bf 6e2e ec3e beee 68bf
000000d0: 6bb3 66c0 fa51 0e3f 5418 b33f fe59 d1bf
000000e0: de0d 9abf aa47 0040 2b0a e6bf 9294 0ac0
000000f0: 9320 5bc0 31bd 1a3f a474 06c0 e8f9 e33d
00000100: 9172 99c0 256b 883f 7633 a23e 7399 4abe
00000110: 705a a2bf f754 f040 9e10 2b3f e5b1 85be
00000120: 659a f3bf 8c5d f53f 03c2 d43f b5a2 0940
00000130: d252 94be ad91 7ebf d67c 65bd ae1e d5bf
00000140: 9ee2 443e fa4e 2e40 46e4 cc3f 47bb 8540
00000150: c1c4 62bf 23a2 2bbf 720b 043d 8bf2 5a3f
00000160: 8f4a a1c1 00ce 563f 46ea 03bc 1802 173f
00000170: a253 16c0 4f25 d9bf e6bc 363e 8642 4a3f
00000180: 5707 553f a2cd 36bf af6c 58bf 8377 02bf
00000190: 15a9 e7bf 97c4 263f ad5e 0940 6312 f53f
000001a0: 2828 7bbe ea33 8741 a5cf 9d3f 39c5 37be
000001b0: 612e 823f e520 363f 901c 943f e126 8f3d
000001c0: 8755 b7be 893a 2fbf 02f0 bebe 7793 a0be
000001d0: d3eb 86bd 759f 873e d09a fcbe 7c03 213f
000001e0: 44b7 0cbf 8692 43be 5c27 d9be 9d05 713f
000001f0: 85a4 a73e c2a9 04be aec1 2dbf 9bd3 45c0
00000200: 567c 013e 9401 cd3e b1c3 fb3e 0bc5 f23d
00000210: 8bad 8bc1 47b0 003e c686 4e3d 96a9 e6be
00000220: 69a1 3abe 6d95 d53d 64a6 e33e e3a7 e43d
00000230: ccfb 093e ba3b 573d 256b f3be 9921 2f3f
00000240: 1cae 35be 57db bb3c ecb4 c2bf da83 9bbe
00000250: 0b09 42c0 7bef 0ac1 86b7 ffbf 3de0 1c3f
00000260: c60c c6be 2c1b 12bb a84e 82bf c044 993f
00000270: 092d 933e 9cdb 9d3f b019 86be 0ae3 8abf
00000280: 3b07 c33f 26f7 7f3e bb7f 8a3f fea4 99be
00000290: 4818 023d 74cd e33e 3b90 24bf 03e7 4b40
000002a0: 3d2b 72be 2b9c 53be d59f 68be 8aed ce40
000002b0: a5a3 39bc 6ece d840 b6ef b7bd 4bd0 223f
000002c0: 67e5 013f d460 003e 036e f5bf e6f4 ad3e
000002d0: ada0 cbbe bf4d a2bd 878e 693d a8de 9f3d
000002e0: cde9 02bf cac1 383e c656 943f ce98 35bd
000002f0: 65d8 c93e 3dab 0b3f 6c78 c9c0 d68c ccc0
00000300: b229 523f 484c 1cbf 2ae1 ffbc e772 ed3e
00000310: 8cd7 a4bf 9426 853e 696f 653f 7df6 6c3f
00000320: 99e9 2e3f ef38 893e d168 8bbe 5f1b 94bf
00000330: 694f b7bf 4a0a fdbf 3cc3 ae3f f90b 943f
00000340: dd39 c2be 7bed 1fc0 00f7 02c1 9e02 8e40
00000350: 4375 30bf 23a5 583f add1 f2be d6e6 94bf
00000360: 7de5 fdbe 7b98 263f 98c2 833f 7661 053f
00000370: 3f80 533f 09f8 91bf 9efa 57bf 46a9 8cbe
00000380: fa0e b8c0 b619 32be ea04 8c3f ecc7 7e3e
00000390: 3786 aebf cb80 65be fa89 be3e 46ca c0be
000003a0: ed9d 8a3e 5fe6 f2be b172 84c1 a902 cfbe
000003b0: 323a 19c0 9e1a 863d 4601 01bf 7bc2 bfbe
000003c0: 0d8d 98bd ed3a 54bf bc4e 91bf c4e7 42be
000003d0: 7921 a63e 020e 26bd 99da 38be 563a 4fbe
000003e0: e329 d1bf 896e a43b e262 22bf 7141 923e
000003f0: 2353 ef3e e68c 2940 8fdb 4f41 e065 a83f
0.29723713 -5.2280364 1.8409742 0.083675146 -0.26684064 -2.707665 -5.7088566 1.142853
0.66078407 -1.0680735 2.2178566 -0.063211344 1.2898828 3.9443154 0.6457879 0.052387353
-2.402755 0.2214342 -0.5414171 0.45588246 -2.4596326 0.96088946 -1.1414059 -25.114782
0.49370995 -0.25267464 -1.5022466 -0.13223262 -1.2739549 1.5667624 1.3107814 0.34044373
1.2211477 -0.7159069 -1.6273032 -0.39229453 0.36375672 -1.8411313 -0.6583007 0.87553865
-0.8539638 -0.57378405 -0.113151476 -1.186252 0.050273456 -0.43684533 -11.692739 2.4416337
-0.26058695 -0.6568792 0.46129173 -0.9098929 -3.6047008 0.55593836 1.3991799 -1.6355588
-1.2035482 2.004374 -1.7971853 -2.165318 -3.4238632 0.60444933 -2.1008692 0.1113165
-4.795235 1.0657698 0.31679887 -0.19785099 -1.2683849 7.5103717 0.6682223 -0.26112285
-1.9031492 1.9169173 1.6621708 2.1505558 -0.28969437 -0.99441034 -0.056027256 -1.6649988
0.19227073 2.7235703 1.6007164 4.179111 -0.8858147 -0.67044276 0.032237478 0.8552634
-20.161406 0.8390808 -0.008051461 0.5898757 -2.3488545 -1.6964511 0.17845497 0.79007757
0.83214325 -0.7140752 -0.8454084 -0.5096361 -1.8098475 0.6514372 2.1464036 1.9146236
-0.24527037 16.900349 1.2328993 -0.17946328 1.0170404 0.71143943 1.1571217 0.069898374
-0.3580744 -0.6844869 -0.37292486 -0.31362507 -0.06587949 0.26488844 -0.49336863 0.6289594
-0.5496714 -0.19098863 -0.4241284 0.9414919 0.32742706 -0.12955382 -0.67873657 -3.0910404
0.12645087 0.40040267 0.49172738 0.11853989 -17.459738 0.12567244 0.0504215 -0.4505126
-0.18225636 0.10428891 0.44462883 0.11164834 0.13474959 0.052547194 -0.47542682 0.6841064
-0.17742199 0.022931738 -1.5211463 -0.30374032 -3.031802 -8.683467 -1.9977882 0.6127966
-0.3868162 -0.0022294028 -1.0180254 1.1974106 0.28745297 1.2332644 -0.26191473 -1.0850537
1.5236582 0.24996623 1.082023 -0.30008692 0.031761438 0.44492686 -0.6428258 3.1859748
-0.23649307 -0.20665042 -0.22717221 6.4664965 -0.01133052 6.775199 -0.08981268 0.6359908
0.50740665 0.12536937 -1.9174198 0.33975905 -0.39771023 -0.07924985 0.05702069 0.0780614
-0.51138 0.18042675 1.1588981 -0.04433518 0.39422908 0.54558164 -6.29595 -6.392192
0.8209487 -0.61053896 -0.031235296 0.46376726 -1.287828 0.26005995 0.89623123 0.9256361
0.6832519 0.2680125 -0.27228406 -1.1570853 -1.4321109 -1.9768765 1.3653331 1.1566154
-0.3793477 -2.4988697 -8.185303 4.4378195 -0.6892893 0.8462698 -0.47425595 -1.1632946
-0.49589148 0.65076417 1.029376 0.5210184 0.82617563 -1.1403819 -0.84366786 -0.27472895
-5.751828 -0.1739262 1.0939 0.24880952 -1.3634709 -0.22412412 0.37214643 -0.37654322
0.27073613 -0.47441384 -16.556002 -0.40431717 -2.394177 0.065480456 -0.5039257 -0.37453064
-0.07448778 -0.82902414 -1.1352153 -0.19033724 0.32447413 -0.040540703 -0.18052138 -0.20237097
-1.6340908 0.0050180596 -0.63432133 0.28565553 0.46743116 2.6492248 12.991103 1.315609

bias f4 [16]
00000000: 6a5f a4be b66c 8b3e 1d5a 453d a372 4840
00000010: efa8 be3c 6a3f ee3d 0070 5c3e 3af9 9b3f
00000020: ffa0 23c0 3c6d df3f b155 1b40 fde7 ccbc
00000030: 64e9 973f 6d33 603e 1c5e 413f ca36 f83d
-0.32104045 0.27231377 0.04818164 3.1319969 0.023273913 0.11633189 0.215271 1.2185433
-2.5567014 1.7455211 2.4271052 -0.025012964 1.18681 0.21894617 0.75534225 0.12119825

weight f4 [16]
00000000: 60ad 2840 f12b 993f 3e63 5840 03f2 6240
00000010: 782b b53f aec5 c83f 3423 c53f ebac 1140
00000020: 4a41 8640 23bc 6040 ae04 7140 ddc0 913f
00000030: 8bc3 4240 9802 7040 113b 4840 8901 853f
2.635582 1.1966535 3.3810573 3.5460212 1.4153891 1.5685327 1.5401368 2.276179
4.19547 3.511483 3.7659106 1.1386982 3.043185 3.7501583 3.1286051 1.0391093

bias f4 [16]
00000000: dd94 1ac0 8cb6 9840 42bc a0c0 30a0 80c0
00000010: 1d1c 813f 12a2 d840 bf79 d240 888c 4dc0
00000020: 0774 1bc0 5381 1dc0 250c 74c0 e2fb 903f
00000030: 0e6f 8cc0 cb0e 06c0 0fe2 1ac0 713b d740
-2.415336 4.7722836 -5.0229807 -4.019554 1.0086704 6.769784 6.5773616 -3.2117023
-2.4289567 -2.4610183 -3.8132412 1.1326869 -4.3885565 -2.094653 -2.4200475 6.726006

running_mean f4 [16]
00000000: a882 b2bf b4be 5b41 e6a6 f6c0 a9ea 2940
00000010: 24ee 5cc1 a232 24c0 8a6e 743f fdf6 dd40
00000020: f419 31c0 3a3f a540 4fa0 6040 ae04 1140
00000030: a5ed cec0 10a8 ff3f b05c b540 4d58 0941
-1.3946123 13.734058 -7.7078733 2.6549475 -13.80814 -2.5655904 0.9548117 6.9364
-2.767209 5.163968 3.5097845 2.2659106 -6.4665093 1.9973164 5.6675644 8.584058

running_var f4 [16]
00000000: e9f7 9443 1029 1245 fcab 1e44 cb9a 9643
00000010: 6340 e844 94fd 9c44 c846 d044 8e7c 9c43
00000020: 00e8 3f43 69c6 8c43 4382 aa43 4ca4 2844
00000030: 45f5 2044 6112 6643 326a 8f43 0bcb 2644
297.9368 2338.5664 634.68726 301.20932 1858.0121 1255.9243 1666.2119 312.97308
191.90625 281.55008 341.01767 674.56714 643.83234 230.0718 286.82965 667.17255

weight f4 [5, 16]
00000000: 9f24 f53d 8a7e f5bc 6379 15be 1fc2 5f3e
00000010: 035b 413d 2332 733e c80b 093c 58fd 8d3d
00000020: 6f6b 1ec1 c388 90bd 5359 563d 2d16 5140
00000030: e597 013e fa9e ba40 a0b8 a2be 6d40 a03d
00000040: b1ea 8bbe 14cd 2e3e 95fb 63c1 fb6d 82bd
00000050: 338f 8ec0 2949 bd3d 17d7 58bd 33fe 42bf
00000060: 3567 42be 3f09 8abe 4bc3 c63e 23cf 0bbf
00000070: 2d93 c43e 1371 9fbe 26b7 a240 0d11 8d40
00000080: 32d2 fdbe bb87 a6c0 2281 97be 6fd0 edbd
00000090: 1631 d93e f7d0 5e3e 067a f73d 69a0 f5c0
000000a0: 5227 c1bd 4391 e6c0 fb3a a33e 5866 a2bc
000000b0: b843 2841 0994 a6bd 640e b7be 7268 273f
000000c0: 126a 9740 4fcf a1bc 1df2 8bbe 92a3 1ac1
000000d0: cc66 47be b067 593e 5d11 ae40 5242 633e
000000e0: 1f4c 543d 0684 04bf 8e7b 513e 28e0 293e
000000f0: 7bad 47bc b5ab 143e 2f1f 39bf 1187 e0be
00000100: cc96 a13e 9fec 91bd b461 0e3e 6136 aa3e
00000110: 7d9b 2bbf b85c bd40 390f 603e 4dea 93be
00000120: 12c4 49be 5102 b63d b872 1dc1 50e0 a43e
00000130: d276 ccbc 5a21 62be 0df6 0f3e c6bc 98bf
0.119698755 -0.029967565 -0.14597087 0.21851395 0.047205936 0.23749594 0.008364625 0.06933087
-9.901229 -0.07057335 0.05233128 3.2669785 0.126556 5.8319063 -0.31781483 0.07824788
-0.27327493 0.17070419 -14.248921 -0.06368633 -4.4549804 0.0924247 -0.0529395 -0.7616913
-0.18984683 -0.2696018 0.38820872 -0.5461294 0.38393536 -0.31140956 5.084857 4.4083314
-0.4957443 -5.2040687 -0.29590708 -0.11612021 0.42420262 0.21759401 0.12083821 -7.6758313
-0.09431328 -7.205232 0.31880936 -0.019824192 10.516533 -0.08133704 -0.35753167 0.65393746
4.731698 -0.019752173 -0.27333155 -9.664934 -0.19472808 0.2123096 5.4396195 0.22193268
0.051830407 -0.5176395 0.20457289 0.16589415 -0.012187357 0.14518626 -0.7231321 -0.43853047
0.3156036 -0.0712521 0.13904458 0.33244613 -0.6703413 5.917568 0.21880807 -0.28889695
-0.19703701 0.088871606 -9.8405075 0.32202387 -0.024959002 -0.22083035 0.14058705 -1.1932609

bias f4 [5]
00000000: 3b97 8bbf 023e f040 b08f 31bf 66cf 5a41
00000010: c474 4640
-1.0905527 7.5075693 -0.69359875 13.675634 3.1008768

weight f4 [5]
00000000: 1542 8240 7a3e 1a40 c790 8640 4bd3 7540
00000010: 7c7a 2440
4.0705667 2.4100633 4.205173 3.8410213 2.5699759

bias f4 [5]
00000000: 1808 8c3f db12 8dbf e972 44c1 4878 2cc0
00000010: ddd6 27c0
1.093997 -1.1021379 -12.278054 -2.6948414 -2.6224892

running_mean f4 [5]
00000000: 3517 a43f 0ecc ff41 ca81 a9c1 3826 3a42
00000010: d392 0242
1.2819582 31.974636 -21.188374 46.537323 32.643383

running_var f4 [5]
00000000: c726 f243 f59b 8943 c23d 4a43 1ecc 4343
00000010: 2912 5343
484.30295 275.2184 202.24124 195.79733 211.07094

weight f4 [16, 5]
00000000: 2dfd ae3d 99ac debd 35de e2bb 1a53 373e
00000010: 4fdf 88c2 d7a7 d83d 365a f33f dc57 43c1
00000020: bc5b b23f e276 94bf 8478 bdc1 9ff8 68bf
00000030: 1b90 d43c a602 123e 0bdd 663e 28aa 073f
00000040: 2733 683e 92a0 2142 e42a a1bc 0969 43bf
00000050: cde4 bf41 2f5d 113e 5de6 06bf 3365 373e
00000060: cfa4 d0bf 59df 1fbd 7170 3442 9ab0 64be
00000070: fb23 023e e212 e8be f232 4ac0 590e d2bc
00000080: 167a 3cbe 187c 5940 4335 8040 e87d 123e
00000090: 5f12 303f eb55 643e edf5 2042 f6ec 04be
000000a0: 1be9 8cc0 7264 32c0 8953 2140 5449 98c1
000000b0: 481e 053d 67d0 dbbd 5bba 31c0 d79b 9240
000000c0: a702 1b41 495d 9bbe 48a5 703f b455 f8bd
000000d0: a2f3 48c2 86f9 fabd b311 57bf 866b 3e3e
000000e0: 4f0c 033f b28f 3cbe 41e8 9fbd 6ab6 1042
000000f0: 8ba8 ce3f 617b 45be cbfe 8a40 66cd 2dbf
00000100: 2364 23c1 b5b0 d6bc ccf0 21c2 02e6 3e3f
00000110: 58b5 b4bd c184 36bf dcfd 2bbf f417 b6bf
00000120: 2df9 1bc1 92f7 1abf 452d 2a40 7760 3a3e
00000130: f62d c5be 3b02 743c b910 19c2 d6d6 0ebf
0.08544383 -0.10872764 -0.006923462 0.17902794 -68.43615 0.10578888 1.9011905 -12.20895
1.3934245 -1.159878 -23.683846 -0.91004366 0.025947621 0.14258823 0.22545259 0.5299401
0.22675763 40.406807 -0.019673772 -0.76332146 23.98672 0.14195703 -0.52695256 0.17909698
-1.6300296 -0.03903136 45.109806 -0.22332993 0.12709038 -0.45326906 -3.1593595 -0.025641607
-0.18405947 3.398199 4.0065017 0.14305842 0.6877803 0.222984 40.24016 -0.12981018
-4.4034553 -2.7873807 2.5207236 -19.035805 0.03249958 -0.10733109 -2.7769992 4.5815234
9.688148 -0.30344608 0.940022 -0.121257216 -50.237923 -0.12254624 -0.8401138 0.18595704
0.51190656 -0.1841419 -0.07807971 36.17814 1.6145185 -0.19285347 4.3436027 -0.6789154
-10.211947 -0.026207307 -40.485153 0.74569714 -0.08823651 -0.71296316 -0.67184234 -1.422606
-9.748334 -0.6053401 2.659013 0.18200861 -0.38511628 0.01489311 -38.26633 -0.55796564

bias f4 [16]
00000000: 4cc7 a240 a80c 59c0 2d85 f040 99b4 eebf
00000010: e56a d7c0 b6c7 6ec0 a650 a6bf 4cfa 03c1
00000020: d473 94c0 05a8 fe3e 2f10 393f f3a6 9fc0
00000030: 374c 0a40 e2cb 8840 d229 3d40 c1aa d440
5.086828 -3.3913975 7.516257 -1.8648864 -6.7317986 -3.7309394 -1.2993362 -8.248608
-4.639139 0.49737564 0.7229032 -4.9891295 2.1609018 4.274888 2.9556775 6.645844

weight f4 [16]
00000000: da0e e93e 3ffb 153f 398a 703f 91cb 6b3f
00000010: c52b 5b3f 6871 0c3f aa9f c03e 9628 543f
00000020: de19 d03e 4846 d93e 3712 0b3f b146 0f3f
00000030: 31ec 9b3e 50da 313f 87f2 1c3f 6d0b 333f
0.45519143 0.58586496 0.9396091 0.9210749 0.8561366 0.54860544 0.37621814 0.8287443
0.40644735 0.42436433 0.5432467 0.5596724 0.30453637 0.69473743 0.6130757 0.6993931

bias f4 [16]
00000000: eb36 e73e a6d7 c7be 155a 3b3e 119c 503e
00000010: 74e2 7d3e 29e8 003f ceee 81bd 0512 0a3f
00000020: dccf debd e877 073f 575d 0b3f 0e7c b13e
00000030: d6ba 02bf b017 073e 2297 fd3d 0150 713e
0.45159087 -0.39031714 0.18296082 0.20372035 0.24793416 0.5035425 -0.063443765 0.53933746
-0.1087949 0.5291734 0.544393 0.3466496 -0.5106634 0.1319263 0.12382342 0.23565675

running_mean f4 [16]
00000000: 5f84 6542 7dc8 2b42 b26f 15c2 f2ad 18c3
00000010: a736 2642 5237 a2c0 ff4d 34c1 ff64 e3c1
00000020: f37d 50c1 63ae aac1 42ab 4043 9134 fcc1
00000030: 459f 42c0 fcd9 8440 d330 1342 439e d041
57.37927 42.94579 -37.359077 -152.67947 41.55337 -5.069253 -11.269042 -28.424314
-13.030749 -21.33515 192.66898 -31.525667 -3.040971 4.1516094 36.79768 26.077276

running_var f4 [16]
00000000: 315c 5f45 4545 8443 fd70 8045 568a 3745
00000010: 395c 8345 4685 3845 16fd fc42 4505 ab45
00000020: 5724 ab44 dba0 c643 34d6 8845 97d0 7944
00000030: 8e0d 2a43 162f 1545 e18d 4b43 dc9f 9a45
3573.762 264.54117 4110.1235 2936.646 4203.528 2952.3296 126.49431 5472.6587
1369.1356 397.25668 4378.7754 999.2592 170.05295 2386.9429 203.55421 4947.9824

weight f4 [21, 16]
00000000: 5b38 68c0 802a c3bd 1cb6 babc 1f58 f33d
00000010: f40f 663d 9a4a c1bd 29fa c33d 2703 babd
00000020: b5ba 8a3d d546 593d 9783 c83b a7b5 4340
00000030: 3536 c63d 66f0 643d 7092 dfbd 4d0e 75bc
00000040: 5b77 27bd d394 2140 a51c 5e3c ce77 2bc0
00000050: 1c74 2ebd 4838 9d3d 6a14 7a3e ebb8 05c0
00000060: e9fe 993f 197d 1a40 0353 bdbe bf0c 913f
00000070: 97ad 18c0 a973 3fbf 3adf 0940 8934 b0be
00000080: 6120 1abe ed50 03be b8aa 68bd 641b 1340
00000090: 5e70 79bc 4610 38bd c1d6 d13d bdbf af3d
000000a0: cb4f 8dbd a81d 31bc a730 80c0 5ccf 40be
000000b0: 5bca 2e3e 998f 813e bb72 a4bd 8388 813e
000000c0: c1e2 82bd 412c 8b3e d3f7 5540 1451 d1be
000000d0: 7867 69c0 0229 46be 5095 973e 028b 0bbe
000000e0: 1de4 d13e 7374 ca3d 5932 993d 5373 583e
000000f0: 1831 bfbe 01d6 a0bd 8d42 be3e 0d6f a9bc
00000100: 6678 6a3c e0c1 353e 582e 613d e34c 63be
00000110: 5ad8 d5bd 6dbf 8c40 fb68 283e a9fa 4ebe
00000120: 0557 a23e f5ae 493e 7816 e43c 4dd5 a9bd
00000130: 10e5 84bd a4b7 62c0 a9a0 1d3e 1226 d7bd
00000140: 99cd 33be f3c7 5fbe 4655 a63f 2ba6 093f
00000150: 443a 5c3f 6546 b53e ebc1 a7bf d745 963e
00000160: f572 86bf ba17 83be e517 8cbe 1fb7 fcbd
00000170: b185 613f 77f3 963e 8e38 1cbf 3286 7e3d
00000180: cf74 bb3c 1fd1 23be 05a4 f23c e968 063e
00000190: 9773 753c 5ca7 dcbc b965 82bd 9cf1 56c0
000001a0: 2d4e c6bd 7677 4e3e 7844 9fbc 8ffb 18bd
000001b0: ee66 063e 88be c1bd b86b 34be f08c 8040
000001c0: 6cf3 59bd 0dd8 a53c 4266 bf3c 9cc5 51bc
000001d0: 5297 19bc 40f9 23ba 330a a1bc 27a0 403d
000001e0: b957 4bbd 8fc3 1abd 8efe 9b3c fac9 603d
000001f0: 07a6 76bd 2173 b5bc 4df7 8abc 06fd 30bc
00000200: af89 803a 3543 863d 9fc0 193c 3a92 1dbd
00000210: b3b9 52bb 6dc7 803c afa0 73bc d2dc edbc
00000220: d639 b7bb b4d0 753d 288a 373c cce9 953c
00000230: 756a f0bc 8dc9 1fbc 8972 e7bb 2776 1cbc
00000240: b298 9ebc e0d2 bebd 3996 85bc cb62 103e
00000250: e892 69bc e988 a83b 5bfa e53c c6b7 b0bc
00000260: fbaf 2e3d 076e a5bc c70f fbbc 5220 1abc
00000270: cd82 853c 0473 023c a8a6 cfbd 661b bdba
00000280: 3727 a63b 98bb 66bc ad5a 203d a6f0 d83c
00000290: 7928 aebc d934 05bd d141 14bd afad 343d
000002a0: ffe3 67bd b5f8 50bd bdc2 b93c b4f1 a43c
000002b0: 8110 52bd e190 32bc b6e6 3fbd b230 2c3c
000002c0: 43ce 0ebc 09b0 323c 5431 8e3c b8d9 9abc
000002d0: 0396 9bbb fd9e 913c 222b fbbc 36c2 f23c
000002e0: 483c 07bd cc31 76bd 6d90 a43b 6316 9dbb
000002f0: 5690 1cbd 90f6 2ebd 57b3 a33c b7f9 273c
00000300: ede1 8c3c 657c d03b 77e4 9b3c bd32 0d3c
00000310: 43c4 e4ba 1a2d 973c a7db edbb 3f3f 37bc
00000320: e71b 85bb 6d86 e03b 7ad5 89bc 722a 29bc
00000330: b386 be3c d1fe f13c 407a 41bc 4828 5dbb
00000340: 25d4 2ebb f68f cc3c b84d d7bb e914 2abd
00000350: bc45 c73c f618 89bc 1b4d 13bd 2880 67bd
00000360: eac8 1d3d 93a3 593d ddb9 3f3c 73f6 61bb
00000370: ecc8 1c3c a1f2 80bc df1f ba3c d766 7d3d
00000380: 848e 3dbd 5ba6 973c 70eb bf3c 23ca 97bb
00000390: 777f 6dbc 1060 4c3a 4ade 86bc a118 333d
000003a0: b080 66bd 6de6 25bd 64cc ab3c 5862 373d
000003b0: d51f 64bd c1b6 93bc f231 c2bc 4d8a 31bc
000003c0: e169 963a 48a9 5d3d b2b9 ac3b 8752 aebc
000003d0: cf7c a5bb 147b 823c 77db 9fbc dd15 9cbc
000003e0: 4b47 21bc 93f4 4a3d 0b57 d13b 0c40 5b3c
000003f0: 988d cbbc a6e8 31bc cba4 a3bc 8d53 20bb
-3.6284397 -0.095295906 -0.022791915 0.11882042 0.056167558 -0.09438057 0.09569199 -0.090826325
0.06773893 0.053046066 0.0061192024 3.0579622 0.09678308 0.055893324 -0.109166026 -0.014957023
-0.04088531 2.5247085 0.013556634 -2.6791873 -0.0425912 0.076767504 0.2442185 -2.0894115
1.2030917 2.4138854 -0.36977395 1.1332015 -2.385595 -0.7478586 2.1542497 -0.3441508
-0.15051414 -0.1282384 -0.056803435 2.2985468 -0.015224544 -0.044937395 0.10246039 0.08581493
-0.06899985 -0.010810293 -4.005939 -0.18829101 0.1706938 0.2530487 -0.080296956 0.25299463
-0.06390906 0.271822 3.343251 -0.4088217 -3.6469402 -0.1935158 0.29606104 -0.13627246
0.4099435 0.09885492 0.07480306 0.21137743 -0.37342143 -0.07853318 0.3716015 -0.020682836
0.014310932 0.17749739 0.054975837 -0.22197299 -0.104416564 4.3983674 0.16446297 -0.20212807
0.31707016 0.19695647 0.027842745 -0.08292637 -0.06489003 -3.5424585 0.15393318 -0.10505308
-0.17558898 -0.21853618 1.2994773 0.5376918 0.86026406 0.3540527 -1.3106054 0.2935016
-1.0503832 -0.2560404 -0.2736198 -0.12339615 0.8809462 0.29482624 -0.61023796 0.062139697
0.022882847 -0.15997742 0.029619226 0.13125958 0.014981172 -0.026935272 -0.06367058 -3.3584967
-0.096828796 0.20162758 -0.019441828 -0.03734928 0.13125202 -0.09460169 -0.17619216 4.0172043
-0.05321066 0.020244623 0.02336419 -0.012803461 -0.0093744565 -0.00062550977 -0.019658184 0.047027733
-0.049644206 -0.037784155 0.01904228 0.05488012 -0.06021693 -0.022149624 -0.016963625 -0.010802513
0.0009806658 0.065557875 0.009384303 -0.03846953 -0.0032154142 0.015720094 -0.014869853 -0.02903596
-0.0055916114 0.060013488 0.011202373 0.01829996 -0.029347638 -0.009752643 -0.007063214 -0.009549654
-0.01935992 -0.09317565 -0.016306983 0.14100187 -0.014256217 0.005143274 0.02807348 -0.021572005
0.042648297 -0.020194067 -0.030647172 -0.00940712 0.016297722 0.007961992 -0.10139209 -0.0014427721
0.0050705927 -0.014082812 0.039148975 0.026481938 -0.021259533 -0.032521103 -0.03619558 0.04411095
-0.05661392 -0.051018436 0.022675866 0.020134784 -0.05128527 -0.0108988 -0.046850882 0.010509657
-0.008716169 0.010906228 0.017357506 -0.018902645 -0.0047481074 0.017776007 -0.030660216 0.029633623
-0.033016473 -0.060106084 0.0050220997 -0.0047939285 -0.038223587 -0.04271561 0.019982977 0.010252408
0.017197574 0.0063624852 0.019029839 0.008618054 -0.001745351 0.018454123 -0.0072588506 -0.011184513
-0.004062164 0.0068519623 -0.016825426 -0.010325061 0.023257589 0.029540451 -0.011808932 -0.0033745933
-0.002667674 0.02497099 -0.006570544 -0.041523848 0.024325244 -0.016735535 -0.035962205 -0.056518704
0.038521685 0.053134512 0.011702028 -0.003447917 0.009569388 -0.015740694 0.022720275 0.061865654
-0.04627849 0.018511942 0.023427695 -0.004632251 -0.014495722 0.0007796297 -0.016463418 0.04372466
-0.05627507 -0.040502954 0.020971484 0.044771522 -0.05569442 -0.01803148 -0.023705456 -0.010836196
0.0011475646 0.054116517 0.00527116 -0.021279586 -0.0050502787 0.015927829 -0.019513829 -0.019053394
-0.009843658 0.04954965 0.00638855 0.013381969 -0.02484779 -0.01085869 -0.01997604 -0.0024463863

bias f4 [21]
00000000: 7f46 9cbd 2dd9 ed3e 9a13 873e 1f58 44be
00000010: c783 a53c c7e1 a5bf 107e ffbc cd18 c63a
00000020: 7e19 c1bc 84c6 573c e929 953c 208c 643d
00000030: 1f7c b5bc b5da a5bc 807b 2cb9 6ebb ebbc
00000040: f5ac 473c 8ff7 b13c be57 573d 21e6 49bc
00000050: a618 f2bc
-0.076306336 0.46454754 0.26382142 -0.1917424 0.020204438 -1.2959527 -0.031188041 0.0015113592
-0.023571726 0.013169888 0.01820846 0.055797696 -0.022153912 -0.02024589 -0.00016449206 -0.028775897
0.012187232 0.02172449 0.05257391 -0.012322933 -0.029552769
