Autoencoder/model.pt (torch, 14335 bytes, 20 tensors)

weight f4 [16, 21]
000000 89 b4 af 3d 39 11 73 3e 8f bc 9d 40 6e c2 8c bf
       0.08579356 0.23737039 4.9292674 -1.0996835
000010 c1 48 9c 3d da b0 c7 3e 79 70 1b 3e fc d9 cf 3e
       0.07631064 0.39002115 0.15179624 0.40595996
000020 c4 5b 02 bf e2 a1 97 bf e1 05 b5 3f 90 cf 65 be
       -0.50921273 -1.1846278 1.4142419 -0.2244246
000030 fc 38 bf 3d e1 c5 94 bf 56 7d 26 3f 52 63 74 be
       0.09337041 -1.1622888 0.65035 -0.23866013
000040 ae d0 90 3f fb 44 e7 3f 57 36 9b bf ee 8c c8 3e
       1.1313684 1.8067926 -1.2125958 0.3917002
000050 45 ad c3 bf d6 40 cc bd e8 37 88 be 22 f5 cd c0
       -1.5287253 -0.09973304 -0.26605153 -6.4361734
000060 53 e0 3b 3f 17 22 65 bb da bb bf be 3e 14 8f bd
       0.73389167 -0.0034962946 -0.37448007 -0.06986283
000070 fb d2 ca be f6 c1 f6 3e 0e 8d 85 3f 5d 2c 83 bf
       -0.3961409 0.48194855 1.0433671 -1.0247914
000080 83 91 1c 3e fa 04 5d bd 3a 56 66 3f 85 e5 04 bf
       0.15289883 -0.053959824 0.8997532 -0.5191272
000090 d8 1e 54 3e ff 11 7a bf df 33 b9 bf 04 b3 7f 3f
       0.20714891 -0.9768371 -1.4468955 0.9988253
0000a0 78 8f a4 be cd 74 a0 3f 5b ba d7 3d b3 05 71 bd
       -0.32140708 1.2535645 0.10533591 -0.058843326
0000b0 a1 dc 21 3f af f7 dd bd ea 29 a3 be f7 fe 60 bf
       0.6322728 -0.108382575 -0.31867915 -0.87889045
0000c0 07 a3 bb 40 cd 9b f6 bf 2e a2 57 3f 12 41 b0 bf
       5.863651 -1.9266297 0.8423184 -1.3769858
0000d0 bc 8d 82 bf c0 02 98 3f e5 18 98 3f 59 40 2d c0
       -1.0199504 1.1875839 1.1882597 -2.7070525
0000e0 dd 45 13 c0 3a 88 92 3f f1 b5 c7 bf 3d af db bf
       -2.301139 1.1447823 -1.5602399 -1.7162853
0000f0 70 85 d6 3e b1 33 ad 3f 51 b7 03 c0 98 75 9b bd
       0.4189868 1.35314 -2.0580637 -0.075907886
000100 d7 7d c3 3d 80 cd a5 3b f1 a9 65 be c9 65 35 c0
       0.095454864 0.005059898 -0.22428109 -2.8343375
000110 ad c1 fd bf 63 8d 02 bd 0b 46 cf bd 6e 94 4d 3e
       -1.982473 -0.031873118 -0.101207815 0.20076153
000120 1a b0 27 3e b8 72 8a bb a7 19 30 3e e5 55 e0 bd
       0.16375771 -0.0042251013 0.17197286 -0.10953883
000130 76 bd 00 3f f3 90 56 bf 3a 62 83 3f 95 85 b3 3e
       0.50289094 -0.83814925 1.0264351 0.35062853
000140 14 37 98 be 8d 03 76 c0 34 8f da bd e1 d0 cf 3f
       -0.2972952 -3.8439667 -0.10671845 1.623562
000150 9b 5e 94 bd 23 c7 5f 3e 3e c1 a0 be 85 d5 82 be
       -0.07244607 0.21853308 -0.31397432 -0.25553527
000160 f0 2e 8a bc 55 59 c6 3f 52 ca a1 c0 95 38 d3 be
       -0.016868085 1.5496012 -5.0559473 -0.41254106
000170 69 04 d0 bd 0b a7 2c be 43 10 97 3e ec b1 90 3d
       -0.10157091 -0.16860597 0.29504594 0.07065186
000180 87 53 42 be 33 00 49 3f 34 95 29 3f ea da 8e bd
       -0.18977176 0.7851593 0.6624329 -0.06975348
000190 02 50 09 3f b1 b0 8a 3f 86 bd ca 3e 6c 38 2b bf
       0.5363771 1.0835172 0.3959772 -0.6688297
0001a0 e4 df 01 c0 0a b5 a8 bd 5d 01 1e be ba 61 28 bd
       -2.0292902 -0.082376555 -0.15430208 -0.041108824
0001b0 bb 71 94 be a6 18 62 c0 ca 6f e1 bf b9 0d b0 be
       -0.2899302 -3.5327544 -1.761224 -0.3438547
0001c0 20 d4 11 bf 0b fa aa bd 0b ac 38 3d bb f7 3f be
       -0.569643 -0.08348473 0.045085948 -0.18746845
0001d0 be c9 02 3f 2e 93 bc bd dd 68 00 3f 73 8e f5 bd
       0.51089084 -0.0920776 0.5016001 -0.11990061
0001e0 26 b9 41 be 5e d6 de 3e e9 4c 3f 3f 30 fb a0 3e
       -0.18918285 0.43522924 0.7472673 0.3144164
0001f0 e8 eb 91 3d d1 5a 1b 3e 2b ba 1a be d7 df 62 bf
       0.07125074 0.15171362 -0.1511008 -0.886228
000200 08 f0 28 bd 59 56 86 c0 ba 99 ca 3e 2d b8 e6 3d
       -0.041244537 -4.1980405 0.3957041 0.112655975
000210 2e 14 2a be 94 53 a4 3e ff 2e 42 be 17 93 10 bd
       -0.1660926 0.32095015 -0.1896324 -0.035296526
000220 ac 86 8e 3e cb 53 04 3e b1 40 d0 be 41 17 a7 3e
       0.2783712 0.1292259 -0.40674356 0.3263493
000230 db 01 8b be 85 fd 36 bf df a3 b8 3e a9 2a 26 be
       -0.27149853 -0.7148059 0.36062524 -0.16227211
000240 c7 93 a6 3e 25 d8 6b be da 1a 00 3f 9e 8d aa 3d
       0.3253462 -0.23031671 0.5004097 0.083277926
000250 4e 88 15 3e ea cf 11 3d ce 2a 8c 3e 55 25 51 40
       0.14602777 0.035598673 0.27376407 3.2679036
000260 17 2d e5 3f b0 a8 a8 3e fd e2 07 3f be 75 b0 3d
       1.7904385 0.32941198 0.5308073 0.086162075
000270 fe 12 c7 bc ea a3 30 3e 73 d7 f5 be 8f 3a 8f 3d
       -0.024301048 0.17250028 -0.48015937 0.06993591
000280 ce 36 ef be cd 5c 15 3e 58 a7 33 3e f8 b0 cc be
       -0.467215 0.14586182 0.17544305 -0.39978766
000290 f5 39 34 bf 7c 6f 9c be e2 1b ce bc 30 48 1e be
       -0.70400935 -0.30553806 -0.02515978 -0.15457225
0002a0 49 3b 28 bd 43 af 0f 3d b6 45 4a bc 9b 42 0f be
       -0.041072164 0.035079252 -0.012345722 -0.13990252
0002b0 86 39 35 c0 81 63 01 c0 f1 12 d6 bd 64 e0 49 bd
       -2.831636 -2.0216982 -0.104528315 -0.04928626
0002c0 4b 5a fe 3c 44 a5 56 3d 9a 6b 9d 3d 0c fd 38 bd
       0.031048914 0.052403703 0.07686539 -0.0451632
0002d0 57 ed d6 3d b9 e5 d8 3e 84 b1 15 bf b4 b5 27 3f
       0.10494488 0.42362764 -0.5847399 0.6551163
0002e0 19 4a 9d 3e e4 76 3a 3d e5 2f 3f c0 a4 4d 10 bd
       0.30720595 0.04552354 -2.9872983 -0.035230294
0002f0 ff 75 a3 3f df 8c 1e 3e 57 82 4a 3f 38 de 1b 3d
       1.2770385 0.15483426 0.7910513 0.03805372
000300 0f 2b 8f 40 90 f0 d8 be 10 1e f8 bd 73 e5 31 3e
       4.474006 -0.42371035 -0.12115109 0.17372684
000310 f5 dd b1 be 8d 4f 3b 3e a8 53 36 3d 7e ae 96 be
       -0.34739652 0.18292065 0.044513375 -0.29430002
000320 e4 5f 22 be 32 76 dc 3e 2d 50 a2 be 8c f4 97 3e
       -0.15856892 0.43058926 -0.31701794 0.29678762
000330 4e 83 3a 3f 45 84 c0 be 50 b0 36 3e 16 32 b5 be
       0.72856605 -0.37600914 0.17840695 -0.35389775
000340 00 51 74 3e c4 44 07 bf c0 b8 d5 40 26 6f 0c bf
       0.23859024 -0.52839303 6.6788025 -0.548571
000350 dc a8 e8 bd 74 3d 09 bf 39 17 c7 3a 2b 68 2e 3e
       -0.11360332 -0.53609395 0.0015189416 0.17031924
000360 f0 19 07 be 06 04 aa bf 65 4f 4c 3f 3e ea b5 3d
       -0.13193488 -1.3282478 0.79808646 0.08882569
000370 b9 fa 1e 3d 0e 5d 01 3f 44 11 ca 3e fb 1c 05 bc
       0.038813327 0.50532615 0.39466298 -0.008124585
000380 7f 5b e5 3e 40 a7 22 bd 73 98 49 be 87 e9 55 3f
       0.44796368 -0.039710283 -0.19687061 0.8355946
000390 3e 62 ac 3f c0 1a ab 3e ef 19 08 be 9b a3 f7 3e
       1.3467481 0.33418846 -0.13291143 0.4836701
0003a0 1e de cc 3f 62 91 0c 3e 03 b7 3b 3f 52 8b 8b bc
       1.6005285 0.13727334 0.7332613 -0.017034207
0003b0 2d 73 40 3f 1e c0 5a 3f 66 48 02 c0 e2 3c 16 40
       0.75175744 0.854494 -2.0356688 2.347466
0003c0 2a ad 21 c0 01 ec 3a bd 81 8b e5 3f c9 57 6d 3f
       -2.526194 -0.045635227 1.7933198 0.92712075
0003d0 a7 8c 60 c0 24 4e 32 3f 9a 96 74 40 ab 13 3e c0
       -3.5085847 0.69650483 3.821692 -2.9699504
0003e0 eb a2 b8 c0 12 51 2b be cc 83 f5 3f 44 6d 4e c0
       -5.7698874 -0.16730145 1.9180846 -3.225419
0003f0 84 c3 72 40 c7 2d fd be fe 20 09 bb 66 b0 69 bf
       3.7931833 -0.49448988 -0.0020924206 -0.9128479

bias f4 [16]
000000 4e f0 04 3e 66 db 8b bd 68 82 38 3e 63 2b f7 3c
       0.12982294 -0.06828956 0.18018496 0.030172056
000010 9e 6c 4c 3d a3 58 ae 3e 29 55 e0 bd 92 13 a5 be
       0.049908273 0.34052 -0.10953743 -0.32241493
000020 21 8c 89 3d a3 db c7 bc e0 ba 78 bd 7e 6e 1d 3e
       0.067161806 -0.024396723 -0.060725093 0.1537418
000030 10 69 01 3e b6 3d 04 3e cb a8 47 be 05 62 41 3e
       0.12637734 0.12914166 -0.19497983 0.18885048

weight f4 [16]
000000 66 83 09 3f b3 4e ce 3e 73 ab 02 3e 36 61 71 3f
       0.53716123 0.40294418 0.12760715 0.9428896
000010 46 86 98 3e 00 c8 dd 3f 53 cb 05 40 64 2f f1 3f
       0.29789943 1.732666 2.090535 1.8842587
000020 5a dc 11 3f dc 27 01 40 7d 67 92 3e ab 17 8c 3d
       0.56976855 2.0180578 0.2859458 0.06840452
000030 e8 9d 0d 3f 91 26 49 3e 33 01 e1 3e 39 f0 80 3e
       0.5531907 0.19643618 0.43946227 0.25183275

bias f4 [16]
000000 b4 70 09 bf 26 86 0d 40 e9 5f 52 3e 98 47 2b bf
       -0.53687596 2.2113128 0.205444 -0.6690612
000010 0e df cc be 5a 15 92 3f 47 74 5a bc 59 f1 92 bf
       -0.40013927 1.1412766 -0.013333387 -1.1479903
000020 dd 34 3f 40 63 d3 f1 3d 9c 19 98 3f bc 9c ee bf
       2.9876015 0.11807897 1.1882815 -1.8641582
000030 2e 5a 1a bf 91 e1 3d bf a7 56 1e bf ca 5c 8c be
       -0.60293853 -0.7417231 -0.6185097 -0.27414542

running_mean f4 [16]
000000 77 79 38 40 15 f8 73 c0 fc 8c 80 40 f8 a7 ad 3f
       2.8824136 -3.8120167 4.01721 1.3566885
000010 04 c2 5d c0 02 6f b9 3f 1b 76 a1 bf 05 91 b2 bf
       -3.4649668 1.4487002 -1.2614168 -1.3950506
000020 d4 be ab 3f 07 bc 98 3f ae 0a 00 c0 88 12 04 3f
       1.3417611 1.1932381 -2.0006518 0.51590776
000030 8e 78 9e bf bb 6c 68 c0 6c 29 ba bf 01 3e 25 3f
       -1.238054 -3.6316364 -1.4543891 0.64547735

running_var f4 [16]
000000 5a 6d d2 42 4a 82 2f 43 14 b8 39 43 35 9a 69 42
       105.21358 175.50894 185.71906 58.400593
000010 86 fb 0e 43 28 80 91 42 3f 99 43 42 c2 d2 7f 42
       142.98251 72.750305 48.899654 63.95582
000020 5a 3c 64 42 61 b0 5a 42 bd 02 64 43 a2 49 60 41
       57.058937 54.672245 228.0107 14.017977
000030 f2 c2 95 42 5e a0 63 43 40 aa 67 42 c5 9c a0 42
       74.88075 227.62643 57.91626 80.30619

weight f4 [5, 16]
000000 60 96 56 bc 96 55 89 3c 98 04 81 bd 55 b6 2e bf
       -0.013097376 0.016764443 -0.06299704 -0.68246967
000010 9d fe 0c bc 4c 21 18 c0 0d 10 56 bd fa 6e 0a 40
       -0.008605626 -2.3770323 -0.0522614 2.1630235
000020 6d 94 ae bf ae 91 5d 3d 83 f1 63 bd 90 84 e1 3d
       -1.3639046 0.05409401 -0.055650245 0.110116124
000030 bd d0 f1 3b 88 79 fa 37 0b d3 82 3e 7a c4 c6 3d
       0.00737962 2.9858915e-05 0.25551638 0.09705444
000040 2c 4f 32 c0 9a cb b6 40 a7 d2 88 3e 27 6b 15 bd
       -2.7860823 5.7123537 0.26723215 -0.03647914
000050 d1 48 4c be 96 f3 c8 3c 9c fb 92 3e 1c b6 ed bb
       -0.19949652 0.024530213 0.28707588 -0.007254375
000060 e0 a8 ca bd 36 b3 93 be 78 94 91 3d da 06 c7 3d
       -0.098954916 -0.28847665 0.07108396 0.09718104
000070 be bc 68 3d c7 8c 32 3d b4 3e 14 3d b0 b8 e8 3c
       0.056820624 0.043591287 0.03619261 0.028408378
000080 25 48 d0 3c f2 2a 92 bc 08 67 52 be 41 e6 6d 3d
       0.025425026 -0.017842744 -0.20547116 0.058080915
000090 73 bd 30 3d 94 60 75 3d ae 38 c3 bd a5 99 a8 bd
       0.043149423 0.059906557 -0.09532295 -0.0823243
0000a0 13 71 c1 3c cf 3a c8 3d eb 81 17 c1 9d 78 02 be
       0.023613488 0.09776842 -9.469218 -0.12741323
0000b0 6b 57 33 c0 5e 11 1d bd 4b f0 71 3d d5 9c d6 3f
       -2.8022106 -0.03834664 0.05906705 1.6766611
0000c0 80 7a 2b bc ae 7c 1c 3e 8d 51 34 c0 af 56 09 3c
       -0.010466218 0.15281937 -2.8174775 0.008382483
0000d0 a0 f1 3c 40 94 2c 2b 3e 27 e2 80 3d e8 a7 47 be
       2.9522476 0.16716224 0.06293135 -0.19497645
0000e0 87 14 30 bd e2 ac 96 bd 88 2c 41 be b2 c1 f4 bd
       -0.042988326 -0.073571935 -0.18864644 -0.11951007
0000f0 7a fc 2b be 96 8a 3c c1 e2 ee 83 bd f6 d4 76 3d
       -0.16795531 -11.783834 -0.06442048 0.06026169
000100 9c bf f8 bb ea 07 3c 3c 54 50 a2 3b 2b 97 12 bc
       -0.007591201 0.011476496 0.0049534235 -0.008947174
000110 55 94 78 3c ea 95 77 3a 36 14 0b 40 84 38 68 3a
       0.015172084 0.0009444641 2.1731086 0.0008858519
000120 5d 2e d0 bc 70 30 0f c0 db c6 b1 bc 23 e6 ac bd
       -0.025412733 -2.2373314 -0.021701267 -0.084423326
000130 6e 8f 2a bc 40 9e 65 bc e7 61 ae 3c 98 db 95 bc
       -0.010410173 -0.0140147805 0.021286918 -0.018293187

bias f4 [5]
000000 89 9e c6 bf 0b 62 46 be 2d 48 73 3d 10 cf 81 be
       -1.5517131 -0.19373338 0.059395004 -0.2535329
000010 17 67 1a bf
       -0.6031355

weight f4 [5]
000000 cd 75 f6 3f 60 00 50 3f 4c 55 50 3f 42 e7 4b 3f
       1.92547 0.8125057 0.8138015 0.79649746
000010 f3 9f dc 3e
       0.43090782

bias f4 [5]
000000 33 d4 13 c0 d9 98 6c bf 3d 61 53 bf 61 11 8a bf
       -2.3098266 -0.92420727 -0.8257025 -1.0786554
000010 4a 4a a4 3f
       1.2835171

running_mean f4 [5]
000000 0b 44 c2 c0 94 87 2d 41 43 09 4d c1 6a 71 0b c1
       -6.070806 10.8456 -12.814761 -8.715189
000010 81 30 5e bf
       -0.8679276

running_var f4 [5]
000000 3f ba b1 3e dc b5 9b 3f 96 15 db 3f 5a 55 7d 40
       0.34712407 1.2164874 1.7115963 3.9583344
000010 d9 cc c8 3d
       0.098046966

weight f4 [16, 5]
000000 72 df d5 bd 1a ab 16 41 1d 4b 86 3d d5 24 1e 3e
       -0.104430094 9.416773 0.065572955 0.15443738
000010 94 3c 0c bf f8 9e 30 3c 0a f4 cd bf 15 75 05 3f
       -0.54779935 0.010780089 -1.60901 0.5213178
000020 69 cf 67 c0 b6 60 b3 be 0f 42 ad be 53 46 21 be
       -3.6220343 -0.35034722 -0.3383946 -0.15749483
000030 49 84 b1 be f2 cd 8e 3d 83 4a fb 40 21 92 c5 c0
       -0.34671238 0.06972875 7.8528457 -6.174088
000040 02 11 06 3e 8b 01 ca be 92 c8 d0 be 20 cc 56 be
       0.13092425 -0.39454302 -0.40778023 -0.20976305
000050 d1 28 f2 40 4f 11 35 3e f5 53 e9 bd 7e 3e bc 3d
       7.5674825 0.17682384 -0.11392967 0.09191607
000060 5d a9 7a be 36 18 0f 41 e4 17 81 3e 8d 4b c1 be
       -0.2447867 8.943411 0.2521354 -0.37752953
000070 31 61 83 bd 11 c9 5f 3d f1 3a d9 bd ec 80 bb 3d
       -0.06415022 0.05463511 -0.10606945 0.09155449
000080 3f a6 4a 3d ff 42 3e c1 e8 81 18 3d 61 52 c6 3d
       0.04947495 -11.891356 0.037233263 0.09683681
000090 76 fa 7b 3e 6b 0a 8e 3c d6 1a 41 3e cf e1 23 c1
       0.24607262 0.017338952 0.18857893 -10.242629
0000a0 75 a1 24 3b 1e f9 a9 3d 2a 46 7f be 48 1c 37 41
       0.002512065 0.082994685 -0.24929109 11.444405
0000b0 0b f4 cb 3c b6 1e 4b bd d2 29 49 bd 1f e4 53 c1
       0.024896642 -0.049589835 -0.04911215 -13.243194
0000c0 cf ab cf 3d 3f 26 c3 bd 9c 09 f1 c0 9f 0f 0b 3e
       0.10140192 -0.09528779 -7.532423 0.13580178
0000d0 50 5d 88 be 5d 22 10 be 8b cd 8c bd be 6b 11 bc
       -0.26633692 -0.14075609 -0.06875142 -0.008875785
0000e0 bf c3 82 c1 18 c3 1b be bd 24 32 bd 74 5c 1a 3e
       -16.34558 -0.15211141 -0.043492068 0.1507433
0000f0 8d e7 29 c0 22 79 ea bd 31 e5 fe 3e 21 68 ad 3d
       -2.6547577 -0.114488855 0.49784234 0.08467127
000100 18 c6 68 3f 3e 3c ec 40 44 02 0c 3f 35 be 60 bf
       0.9092727 7.382354 0.5469096 -0.8779023
000110 33 07 73 bd 0b c7 98 bf bb 0a 61 c0 d4 fd c0 be
       -0.059333038 -1.1935743 -3.51628 -0.37693655
000120 87 86 15 3f 58 83 c5 3d 8c 62 77 3f 4c 5f aa 3d
       0.584084 0.096441925 0.96634746 0.08318958
000130 34 d6 03 3e 40 f6 34 41 22 f6 85 be 56 66 3b be
       0.12874681 11.31012 -0.26164347 -0.18300757

bias f4 [16]
000000 11 90 36 be ca 37 69 3e ba d4 96 3c 1b ce 4d be
       -0.17828394 0.22775188 0.018411983 -0.20098154
000010 0e 95 41 bf e7 de 5b be 8c ca 0c 3f 1a 70 aa bd
       -0.75618064 -0.21471749 0.5499656 -0.08322163
000020 43 48 ee be fa 7c 15 3e d2 c8 31 be 16 c9 42 be
       -0.46539506 0.14598456 -0.17361763 -0.1902202
000030 e5 64 06 3d 90 44 fa 3d aa 62 fd be 3b 75 a9 3c
       0.032811064 0.122201085 -0.49489337 0.020685783

weight f4 [16]
000000 ee 85 14 3f 20 72 b8 3e 3f e7 79 3f 86 c6 b1 3f
       0.5801686 0.3602457 0.9761848 1.388871
000010 8a 1b 8e 3f 11 6a e3 3f e1 4b 23 3f 47 4c 94 3f
       1.1102154 1.7766744 0.6378766 1.1585778
000020 5e 45 19 3f a1 33 42 3f 5b 94 e4 3f c7 1e 06 3f
       0.5987147 0.7586003 1.7857774 0.5239071
000030 46 77 53 3f cc 32 a6 3f 4f 1f 73 3f 1f 57 3a 3f
       0.8260387 1.2984252 0.9496965 0.72789186

bias f4 [16]
000000 2a 47 d0 3e 57 f3 f9 bd ca b2 dd 3e 29 d7 c5 3f
       0.40679294 -0.122046165 0.43300468 1.5456287
000010 01 7c 76 3f a8 e0 37 3f 88 23 3a 3f 0f a4 b7 3e
       0.96282965 0.71827173 0.72710466 0.35867354
000020 e9 2c 07 3f 4a 5f 14 3f 29 98 8a 3f 3e 70 0f 3f
       0.528029 0.579579 1.0827686 0.56030643
000030 fd 92 3f 3e b8 49 d8 be ec 7f b5 bd 6a 3e 06 3f
       0.18708415 -0.42243743 -0.0886229 0.52438986

running_mean f4 [16]
000000 96 a6 55 c0 da 1b 9a 3f 5e ca 26 41 9f 1c 7e 40
       -3.3382926 1.203975 10.424406 3.970497
000010 26 6d ca c0 ef 40 c8 c0 e9 a4 8b 40 82 a1 56 c1
       -6.325824 -6.2579265 4.3638806 -13.414431
000020 88 3b 7f c0 ff cd 4d 40 56 bd 9f 40 a9 f4 8a 40
       -3.9880085 3.215698 4.9918623 4.3423657
000030 5d 43 3a 40 e4 e1 cc c0 99 f1 45 40 60 0d 3c c0
       2.9103615 -6.4025745 3.092871 -2.9383163

running_var f4 [16]
000000 4e 7e 06 41 fb 68 d4 3f 1f 48 38 41 ee aa 89 41
       8.405836 1.6594537 11.517608 17.208462
000010 b2 65 ce 41 70 98 12 42 f9 53 57 41 e6 99 a0 41
       25.799656 36.648865 13.458001 20.075146
000020 08 5f 48 41 b2 8c 6c 41 cc 9e cb 41 91 e5 ca 41
       12.523201 14.784349 25.452538 25.362093
000030 c8 20 4c 40 75 84 c5 41 9d 55 b4 40 bc 69 2c 41
       3.1895008 24.689676 5.635451 10.775814

weight f4 [21, 16]
000000 65 01 27 3d f3 d5 f0 bd 3d 77 b1 bd 08 26 9a 3d
       0.040772814 -0.117595576 -0.08665321 0.07526785
000010 05 d7 db 3d b9 5c b6 bd b3 3e 9a bc ae 86 a0 bb
       0.10734371 -0.08904404 -0.018828725 -0.0048988676
000020 40 82 eb 3c f0 2b 1d 40 67 68 ea bd 55 7c 67 3c
       0.028748631 2.4558067 -0.114456944 0.014128764
000030 ac b6 17 3d 6c 29 63 3d 77 60 59 3d 0d 71 20 c0
       0.037039444 0.055459425 0.05307051 -2.5069
000040 b4 7b 2d 3d 7a 25 19 be ac fd bb bf d8 ce 51 3d
       0.0423543 -0.14955702 -1.468679 0.051222652
000050 6f 43 0b be 3a 66 1a bc 43 ed a4 3d ca 46 d1 bf
       -0.13599943 -0.009423787 0.080530666 -1.6349728
000060 cb c8 e0 3d 5d d2 58 bd 48 ce a9 bd 93 5e 55 3d
       0.10975798 -0.052934993 -0.08291298 0.052092146
000070 e4 21 ce 3e e5 d8 c7 bd 0d 98 a5 3d 3c da 75 3c
       0.40260231 -0.09758166 0.08085642 0.015005644
000080 94 10 2c c0 a3 e9 6b 3d 19 ed f4 3d 71 bb 99 3d
       -2.6885118 0.05759586 0.11959285 0.07506455
000090 1b 0b a7 bd 48 9d d4 3d 95 3c 0a bd da a7 d8 3c
       -0.08156415 0.103815615 -0.03374918 0.026447225
0000a0 13 f8 af bc 8e c5 13 bd 5e 58 67 bd ff ff 36 40
       -0.021480596 -0.036077075 -0.056480758 2.8593748
0000b0 e0 79 e9 bd a3 8d 03 bd 85 82 59 3d c3 5f ac 3d
       -0.11400199 -0.032117497 0.05310299 0.084167026
0000c0 d0 44 cd be 44 0b 71 3f 79 ab e0 bf 0b fb c2 bd
       -0.40091562 0.94157815 -1.7552329 -0.09520539
0000d0 74 23 41 3e 8b bf b5 3d 78 ce 22 be f0 7a d7 3f
       0.1886118 0.088744245 -0.15899074 1.6834393
0000e0 c1 f3 a6 be 18 0e 41 be 9a c5 22 be 12 74 a1 be
       -0.32607844 -0.18853033 -0.15895692 -0.31533867
0000f0 9e 5e e9 3f 25 86 d4 3c 20 6d d8 bf fe e2 a3 be
       1.8232 0.025942871 -1.6908302 -0.3200912
000100 3d 05 37 3e 84 e7 d1 bd bc ca 35 3e f7 27 82 3f
       0.17873092 -0.10249236 0.17753118 1.0168446
000110 33 d5 0a be 58 d9 e1 3f b3 ec 1e 3d 69 20 9d bc
       -0.13557892 1.7644453 0.038799953 -0.019180493
000120 ff 94 1f 3e 2a 02 51 bd 1b 34 1e c0 68 fd c4 3d
       0.15584181 -0.051027454 -2.4719303 0.09618646
000130 00 9a e2 be 32 d4 8d 3f 56 6d 41 bf 52 fe 08 be
       -0.44258118 1.1080382 -0.7555746 -0.13378266
000140 e9 3d e6 3d 02 68 86 bf 3e 54 49 bd c3 a0 2c c0
       0.11242277 -1.0500491 -0.049152605 -2.697312
000150 0d bd 33 40 58 4f 24 c0 03 9f 8f 3e cc 00 42 bc
       2.8084137 -2.5673428 0.28051004 -0.01184101
000160 d6 d7 f5 3e 16 a3 a8 3e f6 01 1b 40 63 7f d0 3d
       0.48016232 0.32936925 2.4219947 0.10180547
000170 5a 22 93 bf 53 b3 0d 40 cb 4c 9e bf 46 70 93 3e
       -1.1494858 2.21407 -1.2367185 0.28796595
000180 23 b0 cc 3b 8f b9 1e 3e db 5e 3c 3c e8 8d 1b bd
       0.006246583 0.15500472 0.011497225 -0.03797713
000190 7e 51 cd 3c 69 ab b0 bd 66 98 15 40 3d 2d 04 bd
       0.025063273 -0.08626444 2.3374267 -0.032269705
0001a0 4f 18 16 c0 ec cb 15 bd 2f 72 4d bc 59 fc 19 3c
       -2.3452337 -0.03657143 -0.0125394305 0.009398543
0001b0 94 17 57 be 71 71 3f 3e d7 e6 cd 3d e7 a0 72 3d
       -0.21005088 0.18695618 0.10053795 0.05923548
0001c0 1c e9 17 bb 18 54 23 3d 76 f4 30 bc b6 4b 0c bd
       -0.0023179715 0.03987512 -0.0108004715 -0.03425189
0001d0 f8 ec 0a 3d 04 ab b9 bc 67 e5 ba bc 9c 32 ad ba
       0.033917397 -0.022664554 -0.022814466 -0.0013213935
0001e0 5f 0e f5 bc 2f e7 d4 3c 20 1c 40 3d d1 73 7e 3c
       -0.02991408 0.025989143 0.046901822 0.0155305425
0001f0 88 97 1e 3d b4 98 96 bd 10 74 b8 3c 21 d7 ca bc
       0.03871873 -0.073533446 0.02251628 -0.024760785
000200 1a 41 b7 bc 2c d6 6d 3c a8 e3 5c bd fc ff c8 3c
       -0.02236991 0.014516395 -0.053928047 0.024536125
000210 b6 b5 86 bd d0 30 26 3d e9 8f cf bb 21 ea f0 bb
       -0.06577627 0.040573895 -0.006334294 -0.007352129
000220 8b 69 9f bb c8 4d 25 3c 6c b4 a5 bc 83 dd 36 bd
       -0.0048648766 0.010089345 -0.020227633 -0.044644844
000230 6b 45 82 bd e2 87 25 3d d8 7c 61 3c c8 17 a8 3b
       -0.06360897 0.04041279 0.013762675 0.005129788
000240 cf 0a 29 bd b4 28 cd bb 81 75 6e bc 89 17 e3 bb
       -0.041270074 -0.0062609557 -0.014554382 -0.006930296
000250 bf cc 7c bb f4 10 79 3c 73 d0 4a 3b a9 bf 0c 3c
       -0.0038574187 0.015201796 0.0030947 0.008590617
000260 d2 44 5f 3c dc 36 8d bc 23 70 8f 3c 21 ab 11 3d
       0.013627248 -0.017238073 0.017509526 0.035563592
000270 bd b3 a9 3c 91 f3 01 bd f3 b0 dc bc 51 0f 0c bc
       0.020715589 -0.031726424 -0.026939845 -0.008548574
000280 58 06 a8 3c 04 87 9f ba be fd ea bb 8d 92 35 3b
       0.020510837 -0.0012170975 -0.0071713617 0.002770576
000290 69 4f 63 3c d4 c6 c2 bc 84 97 e7 bb cb 31 d4 3c
       0.013873913 -0.02377645 -0.0070676226 0.02590265
0002a0 e5 f8 35 b9 3a 49 9a 3b 68 09 13 3c 24 44 86 3c
       -0.00017354226 0.0047084363 0.008974411 0.016389914
0002b0 b5 2c 9b 39 16 14 7c bd be c2 90 3d e4 06 5d 3c
       0.00029597213 -0.061542593 0.07068394 0.013490412
0002c0 ab fa 6d bc cc 68 fa 3c d0 50 0c bc d0 32 83 3b
       -0.014525096 0.03056755 -0.008564189 0.00400386
0002d0 78 f8 62 ba 43 cd f3 3c c6 44 da bb 31 d7 71 bc
       -0.00086582405 0.029760962 -0.0066610305 -0.014760778
0002e0 58 b8 95 bc 21 2d 57 3c 9d e6 8f bc c8 50 8f bc
       -0.018276379 0.013133318 -0.01756602 -0.017494574
0002f0 1a 41 4d 3d f1 ca b8 bc a5 61 13 bd 44 76 a5 3c
       0.050110914 -0.022557708 -0.035981793 0.020197995
000300 95 4e 25 3c 80 3e 78 bc aa 6b 47 bc 2c 85 ed bc
       0.010089536 -0.01515162 -0.012171665 -0.028994165
000310 21 b0 9c 3c 32 3d 06 bd 25 7d 9f 3b e6 77 4b bb
       0.019126954 -0.032773204 0.0048672133 -0.0031046807
000320 88 31 48 3b 81 71 14 bc f0 f2 8c 3b 5b 1f 77 3b
       0.00305471 -0.009060265 0.0043014213 0.0037707898
000330 21 1f c0 bc e9 8f 94 3d 37 3e 73 bc 0e ea d8 bb
       -0.023452343 0.07254011 -0.014846376 -0.0066196984
000340 9b 54 bf bc 35 a1 b4 bd 5f 73 12 3c f4 c3 93 38
       -0.023355773 -0.0881981 0.008938639 7.046005e-05
000350 22 05 23 bd 8a cb f4 3c ea db 14 3d e9 c0 d5 3b
       -0.039799817 0.029882211 0.03634254 0.006523241
000360 7b 4f 4b 3c ea 26 a8 3b 90 eb 7f 3b 61 c9 15 bd
       0.012409086 0.005131592 0.0039050318 -0.036569003
000370 2b a5 a6 3c 76 65 6c bb d4 03 31 bd bb 99 c8 3b
       0.02034243 -0.0036071218 -0.04321654 0.0061218417
000380 e2 6f 70 bb 54 2b 30 3d 9f 67 ef bb 49 d7 03 bd
       -0.003668778 0.04301007 -0.007306054 -0.032187734
000390 08 5c 11 3d 0f 6c ca bc 17 88 ac bc 9a 14 ab 3a
       0.03548816 -0.02470973 -0.021060986 0.0013052404
0003a0 6f cd b3 bc ad 1a ab 3c cf 8e 39 3d 19 9e 8c 3c
       -0.021948544 0.020886743 0.04530221 0.01716523
0003b0 af 3a 1e 3d d6 7f 97 bd b6 5a b3 3c b6 77 69 bc
       0.038630184 -0.0739743 0.02189384 -0.014249733
0003c0 b4 ba f3 bc 57 91 06 3c 0d 45 4b bd bb ea b2 3c
       -0.029752113 0.008213363 -0.0496264 0.021840444
0003d0 c3 8f 87 bd ca 52 25 3d 30 fd cb ba 02 37 0d 3b
       -0.06619217 0.040362157 -0.0015563127 0.002154768
0003e0 ca 3f e4 b8 b8 9c d7 3b d4 2e 90 bc 01 dc 30 bd
       -0.00010883769 0.0065799616 -0.017600454 -0.043178562
0003f0 11 35 64 bd 81 c8 0c 3d 2b 47 4c 3c 62 0b 3d 3c
       -0.05571467 0.034370903 0.01246814 0.011538358

bias f4 [21]
000000 d9 62 6f bd 83 64 3a 40 80 5e 9b 3c 45 d4 7b 3f
       -0.058443878 2.9123847 0.01896596 0.9837077
000010 a4 08 7f bf c2 d3 eb be c0 f3 b6 bd 37 a6 a2 3c
       -0.9962256 -0.46059996 -0.089332104 0.019854648
000020 5f da bd 3d 6e d7 8a 3c 8f f1 3a bd 79 cc 1f 3c
       0.092701666 0.016948428 -0.045640524 0.00975334
000030 57 eb 00 3d 79 e6 c4 3c b8 8c 96 3c de 78 a4 3d
       0.031474438 0.02403568 0.018377647 0.08030866
000040 31 85 a2 3c ad 02 51 bd 93 43 d0 3b f7 0c e3 3c
       0.019838901 -0.051027942 0.0063557117 0.027716143
000050 c4 99 c1 3c
       0.023632891
